darts_logs/2023-06-13_06_52_52_torch_model_run_20030/checkpoints/best-epoch=1-val_loss=0.01.ckpt (torch, 22115 bytes, 19 tensors)

rnn.weight_ih_l0 f8 [40, 1]
0	0xbfd16d0799b5fefe	-0.27227964411575545
1	0x3fe07a41d35fb09d	0.5149239662546453
2	0x3f926189b088a117	0.0179502023694634
3	0x3fb577675f3923b1	0.08385320734772851
4	0xbfc8f3f19818c52d	-0.19494457174872917
5	0x3fc052509d0f58c1	0.12751205128615165
6	0xbf3d9e7ef8de8ffa	-0.00045195197969349866
7	0x3fc5bcbb8d7a7a32	0.16982216270567246
8	0x3fdfb14d843af9ec	0.49519670403597504
9	0x3fa9762f3cb54ed1	0.04972980133120831
10	0xbfc5a18d9504af76	-0.16899270798000615
11	0x3fb82a90f4d9cabc	0.09439950921823032
12	0x3faaccad3ea2fbae	0.05234280957801417
13	0xbf8f3a8654e9e27b	-0.015248345819814482
14	0xbfd57c38c5fe9f2b	-0.3357068952122854
15	0x3fc3f6cd4d28d712	0.15596929805331478
16	0x3f90f2b435c4e1ce	0.016550842077067966
17	0x3fd474a7274e908e	0.31961993063510696
18	0x3fb1deee5fe44db0	0.06980790940388348
19	0x3fb8a997b9ac0270	0.09633777888303441
20	0xbfc6fe69012d7b9f	-0.17963898236754702
21	0x3fbe843e9ff025e4	0.11920539288271176
22	0xbfda8812574ed82b	-0.4145551540963221
23	0xbfc66fcb09117f51	-0.17528665488043285
24	0xbf9bafda0343a671	-0.027038008164629482
25	0xbfd6dddf273d9f3a	-0.3572919734201495
26	0x3fae68332aa724dc	0.05938873191514357
27	0xbfc35e7d9c231056	-0.15132112621188537
28	0xbfa7e723c403e224	-0.046685331037171346
29	0x3fc92171a93529cb	0.1963331295213052
30	0xbfb981a19652d236	-0.09963426513679327
31	0x3f7bee524fffa269	0.0068190780002415985
32	0x3fd8ae5f19723fd8	0.38564279065121587
33	0xbfa995753822f441	-0.049968398192028925
34	0xbfc4e6a3c5122c98	-0.16328856585127904
35	0xbfa8e66d3737b880	-0.0486330156235093
36	0xbfb06637ff5cad4a	-0.06405973419594094
37	0x3fd735b106aaf1de	0.36265206957957996
38	0x3fb87060afa24787	0.09546474731385333
39	0x3f903e94bd4bf25f	0.015863727620841647

rnn.weight_hh_l0 f8 [40, 10]
0	0x3fd28771954ab4b0	0.28951682643203025
1	0xbf97e3812a7fdf30	-0.023328798502887327
2	0xbf9a42badf0d2c30	-0.025645179618816794
3	0x3fcff4cad9b96835	0.24965797072474208
4	0xbf7ea9c607dcfb0d	-0.007486127431376455
5	0x3fc29a70b6013e4b	0.14533814322429559
6	0x3fb0217f5209db51	0.06301112893002637
7	0xbfca45527bae2b6e	-0.20524054564551925
8	0x3fb3884f48bae2d0	0.07629867101321541
9	0x3fc06bb7e723ec64	0.12828730379246445
10	0xbfd3d0feacdc5c61	-0.30963103180824275
11	0x3fc2144212e71324	0.14124322817783608
12	0xbfcfbb967fbc9a8d	-0.24791222798485926
13	0x3fc608e8b1e6f04b	0.17214688002229858
14	0x3fcaf4d69753623e	0.21059687031699242
15	0x3fa3533c41a4dc04	0.03774441052740232
16	0x3f6da125511bedfd	0.0036168793529875996
17	0xbfd896ddd121dbc6	-0.384208158713076
18	0xbfa812fa6876f93c	-0.04701979184345581
19	0xbfc2affb31963d1e	-0.145995520794238
20	0x3f69536fcefb49e4	0.003091543556231745
21	0x3fb519ce76a4fefd	0.08242502590746521
22	0xbfc1bdb148dc1beb	-0.1386014562378642
23	0xbfd82b0feb9b381c	-0.37762830742292564
24	0x3fa6fbd52ce159f3	0.044890081146764425
25	0x3fb818ca01fd84b2	0.09412825153914886
26	0xbfc70b135f9921db	-0.1800255028522447
27	0xbfc6402718997090	-0.17383278561726856
28	0xbfdb1518dfb211e8	-0.42316266865989727
29	0xbfc9394f0f418e82	-0.1970614265911657
30	0x3fc127fdb2a09c49	0.13403292867698927
31	0x3fc06f40d01a27cf	0.1283951774715306
32	0x3fc03da7bedeb1bf	0.12688156909770318
33	0x3fc4d3297caae5a8	0.1626941546181062
34	0x3fc5db26be81aaf8	0.17075046827388696
35	0x3fd64cd52d3168b2	0.34843949712161326
36	0xbfb3525b4736d778	-0.07547541130665347
37	0x3fd115eec743f2f3	0.2669636674834656
38	0xbfb6b58d81736342	-0.08870777521532339
39	0xbfab07eb03b671bf	-0.052794784739691895
40	0x3fd521a3d3c303f2	0.33017821960316873
41	0xbfcc1fd9cd281ec1	-0.2197220088712495
42	0x3fc0ea721eeb2460	0.13215471753781838
43	0x3fd365502c1520ea	0.3030586653226367
44	0xbfd06c7f784fd0be	-0.2566221880836216
45	0xbf88801bf79ced0c	-0.011963098997162656
46	0x3fd4e7360f668516	0.3266120100398252
47	0x3f98ab149c286700	0.024090120345227284
48	0xbfbaa3e134c3d6fe	-0.1040631059475707
49	0x3fc8a5ea01529c15	0.19256329598030733
50	0x3fb89141d10d6a10	0.09596644738977766
51	0x3fdd04427c8477fc	0.45338499221713824
52	0xbfd099b9da91fbb5	-0.25938268990278895
53	0x3fbecfd278552887	0.1203586143284686
54	0x3fc7dd4a223e1cb9	0.18644072219851696
55	0xbfc9d803968f80a7	-0.20190472461309136
56	0xbfc472817d9a86a7	-0.1597444403933441
57	0xbfcbfa10b27a28e9	-0.21856888498979934
58	0x3fb6bea987d37d31	0.08884677473132709
59	0x3fc685175036105c	0.17593661705552932
60	0x3fbb3a5f62ad8935	0.10635944518211178
61	0xbfa3d5ebb897a2cf	-0.03874146107029263
62	0xbfa0be178c8711c7	-0.032700286773919944
63	0xbfb1bdfcfc775798	-0.06930524028515916
64	0xbfd15a432b563ebc	-0.2711341784679282
65	0xbf9e458c78b748d4	-0.02956218230048864
66	0xbf875201990d5df7	-0.01138688324287694
67	0x3fccd9b81e280aeb	0.22539426300507812
68	0xbfa1fb0023acace6	-0.03511810718040369
69	0xbfc35723c517f13c	-0.1510967934008337
70	0xbfbaa73c5ac7fd05	-0.1041143151887703
71	0xbfc958d504a1ec5d	-0.19802344061085622
72	0xbfdaa0d6ae39ad18	-0.4160668088358803
73	0xbfc8ea03519fdd94	-0.19464150891847665
74	0xbfc806c48a48529d	-0.18770653488231384
75	0xbfd8ddffc27b52db	-0.3885497473941492
76	0x3fb7cca72a88f7c5	0.09296650684788606
77	0xbfb025f97dfa53a1	-0.06307944608336281
78	0xbfc9fd2f9d47047f	-0.2030391233402362
79	0x3fd5d4bdec8107cc	0.34110973449798787
80	0xbfdbb674ff0b4677	-0.43301129252095144
81	0x3fb7fc74ea66187b	0.09369593355776999
82	0xbfcd2b7837ea9f7f	-0.2278890870122687
83	0xbfd77e0928c6c265	-0.3670676134306972
84	0x3f53060f82b394ca	0.001161112925552476
85	0x3fba97bbef3af903	0.10387777891716969
86	0xbfc864b693a9decf	-0.19057352266439984
87	0xbfbf10407d42e203	-0.12134173448692569
88	0x3f72e9a1e69c7624	0.004617340493295017
89	0x3fd2da568b99b782	0.29457629807335917
90	0xbfd529ea4b810dcd	-0.33068330167244825
91	0x3fb6c1a4c8fa6820	0.088892268244678
92	0xbfda9a1210251031	-0.41565372063292033
93	0x3f60a184e757d0b1	0.0020301433348724686
94	0xbfd0e2e88ac27f72	-0.26384938765294585
95	0x3fb3954582cc8413	0.07649645274479182
96	0xbfd1643684f4979e	-0.2717415140526728
97	0x3fb60bb72b9bedb4	0.08611626448321524
98	0x3f61682f1c58b30a	0.00212487412752294
99	0xbfc7b102415ff470	-0.1850893801892286
100	0xbf8ffeff226c48e1	-0.01562308620262737
101	0xbfd048867e8f29c5	-0.25442659720706856
102	0x3fbd6285a4f714e8	0.11478457715482515
103	0x3fc4309e9cd24053	0.15773375184335467
104	0xbfd37bf236a0135e	-0.30444007238866344
105	0x3fb0b8a2899c71f7	0.06531730518003785
106	0x3fa7bb99c42fe772	0.0463531543718564
107	0x3fcd9573b5b1ebf7	0.2311234128172541
108	0x3f8abd825ac202fe	0.013056772608480479
109	0xbfc5b91739ce8e46	-0.16971102068520078
110	0x3fc7da2d604598cd	0.18634574127935935
111	0x3fd4943a1a5995ff	0.3215470559428865
112	0x3fbda1dc8a72d7b9	0.11575106029599071
113	0x3fa1b26796f5b957	0.03456424443980904
114	0xbfc52dd3ccb4bb4b	-0.16546103949937171
115	0xbfd75854c8076485	-0.3647663072020538
116	0xbfc707746b943d29	-0.17991500141986563
117	0xbfba27d8b17780a5	-0.10217050869641982
118	0xbfce361e8d3622f1	-0.23602659125415174
119	0xbfc76b68329cac9f	-0.18296530219354154
120	0x3fc508feb8ed07d0	0.16433700589737876
121	0x3fd700de437e5aa0	0.35942799178284623
122	0xbfc465af4b1cfdbc	-0.15935317199362753
123	0xbfa74b604ac0872b	-0.04549694931507838
124	0x3f8688e2f0dc4612	0.011003277755238936
125	0xbfdc689462756286	-0.44388303389636297
126	0xbf9afd1ce33ac7d6	-0.026356173867220743
127	0xbfd84467aeade2db	-0.3791751104213696
128	0xbfd658ab250e5a71	-0.3491618978381786
129	0x3fb13f841f6b1098	0.06737542883917269
130	0x3fd815755ce808be	0.37630971978081706
131	0xbfca74ec93a5d00e	-0.2066932412086548
132	0x3fabf412534f22f0	0.05459649340588679
133	0x3f8047f5f2414bd5	0.007949754195726225
134	0x3fc4e9389f40139e	0.16336734558003924
135	0x3f431aa80f0230df	0.0005830116842999964
136	0x3fbad0242fc7f4f9	0.10473848501711193
137	0xbfc7fccfaeb70d2f	-0.18740268736846974
138	0x3fc7f5563db61d2e	0.1871745873761283
139	0xbfc23b66a50a39a5	-0.14243777330962107
140	0x3fcc8c68b038a9e9	0.22303494076307054
141	0xbfc2c3ead051b49c	-0.1466039197142991
142	0x3fa902a7b86ba06a	0.04884838224626338
143	0x3fd73174f62ee2a8	0.36239360848734714
144	0x3fb93ffc2ccbce48	0.0986325845113295
145	0x3f9c041cc6241c0e	0.02735943755490316
146	0xbfcfcc44b45e4c8d	-0.2484212761597501
147	0xbfc6e16b3493b533	-0.1787542349551728
148	0xbfb8ef01071bf765	-0.09739691184583206
149	0x3fb2f3d500e3fbbe	0.07403308173887432
150	0x3fcc9c131eaa8353	0.2235130214440014
151	0xbfa2f1dbcc42bbbb	-0.03700148456970661
152	0xbfd26a3035b96afb	-0.2877312206889397
153	0xbf9ccd55f3ff16bd	-0.028127043740616687
154	0xbf8d94ea80cfc81d	-0.014444191032428272
155	0xbfc7f08fd89b8d3b	-0.18702886654419068
156	0x3fc667e9b9e3c587	0.1750461728729926
157	0xbfc4be2d5046bfcc	-0.16205374164337483
158	0xbfc6db0ae845e342	-0.1785596498628142
159	0xbfa2c05e039ce04b	-0.03662389558888942
160	0xbfb1508da24e695d	-0.06763539516979251
161	0xbfb9000d346bd327	-0.09765703706564165
162	0x3fd352975658ea49	0.3019159644351573
163	0xbfd0078430628336	-0.25045876240806153
164	0xbfad9a9286b5435f	-0.057819918578963174
165	0x3fa145ed81e127a2	0.033736631493027205
166	0xbfc04d8c64fe6599	-0.12736658984503604
167	0xbfc4bef4a9ee8ebf	-0.1620775060410917
168	0x3f80990fd96b2b8b	0.008104442427244304
169	0xbf9901a99536b918	-0.024420404178891436
170	0xbfbd5f6b3adc0d81	-0.11473722636224261
171	0x3fc0233420b1f986	0.12607432934232693
172	0xbfc15e28bd3f255e	-0.13568600884017717
173	0xbfc465d3e8e7816a	-0.15935753700524496
174	0x3f9959fde3ba62e9	0.02475735380594105
175	0xbfd276f20ce0fe81	-0.28850985772803744
176	0x3fcafff3617ede10	0.21093599567915122
177	0x3f9fd4f710ac5fa6	0.03108583487764318
178	0x3fc34892f12717c4	0.1506522824767541
179	0xbf9c141658f47f8c	-0.027420376948725386
180	0xbfc3a90205993de0	-0.15359521172875557
181	0x3fb0cddda248bfd5	0.06564126216903728
182	0xbfd618f0f3a05b1b	-0.3452722911037413
183	0x3f952bb6f3ca9f34	0.02067457068429164
184	0x3fcf04086492c440	0.24231057081991203
185	0xbfc28213cc09203e	-0.14459464514425407
186	0xbf95c8bb11a6e355	-0.021273539497744427
187	0xbfc37910c13e74cb	-0.15213212428799347
188	0xbfd1a4889554d332	-0.2756673296274129
189	0xbfc6c6a03216130a	-0.17793657727829554
190	0xbf926b96f49cf7c5	-0.017988547019960572
191	0x3fd311e39436ce40	0.29796685670882894
192	0x3fbd69f50c05cc0c	0.11489802878877259
193	0x3fc55e08e961a5b8	0.16693221469476582
194	0x3fcd2d3a4aa40591	0.22794273991170802
195	0xbfb8d7551a9f5462	-0.09703571224174959
196	0x3fcf0816d377cd00	0.2424343617018181
197	0xbfd189191428b917	-0.27399279564532847
198	0x3f836a9d2e11b178	0.009480693787019531
199	0x3fbff8c266320cb9	0.12488951678283201
200	0x3fd3a81bfa06944e	0.3071355764062148
201	0x3fb58340f8fc79ce	0.08403402403607815
202	0xbfce415d1fd865c3	-0.2363697438711779
203	0xbf5c79da104a2402	-0.0017380361106538182
204	0xbfd22fd5e285cc17	-0.28416964646675197
205	0xbfd774062c08b8f6	-0.3664565496464002
206	0xbfcf3ededd615a65	-0.24410615739425903
207	0xbfd9419f939dda8c	-0.394630331189014
208	0xbfd34f75737daf06	-0.30172477987683555
209	0x3fdbab926e751024	0.43234692370265493
210	0xbfdc4cd8e913dc28	-0.44219038735849603
211	0xbfc810d207498419	-0.1880133185941595
212	0xbfd3ccf6a17dda1d	-0.3093849732462404
213	0x3f9293a8a3306205	0.018141398391977166
214	0x3fc912de1bce8e26	0.19588829381710687
215	0xbfc0ea1357ea9c10	-0.13214341919703587
216	0x3fbf21bec9f57f1e	0.12160866194380701
217	0xbfc93930383469a7	-0.19705775017139368
218	0xbfc6a8d3e9d909f7	-0.17702721517896666
219	0xbfaa80910596fe08	-0.05176213448748618
220	0x3fd3d68d0ca30a44	0.30997015222616064
221	0x3fc3e68c5ecf6e9f	0.15547327641876493
222	0x3fad0b4a35d6610b	0.05672675997920081
223	0x3fdb21cdf8c82a24	0.42393826766115894
224	0x3fa47ddce379b997	0.0400227573089637
225	0x3fc792851eb709b8	0.184158935544543
226	0xbfbfd91f524b1a42	-0.1244067741309687
227	0xbf990ec90b197ec9	-0.024470464041199933
228	0xbfd544bc6b4ee424	-0.332320313256391
229	0xbf6364156e61efab	-0.002367059572007298
230	0x3fa1d27c9a83f248	0.034809011327500416
231	0x3fd35ae02df36c96	0.30242161261930656
232	0xbfc27bf67cc9dd47	-0.14440804570379326
233	0x3fbc090e3bff3f5a	0.10951317753574355
234	0xbfc79a814c5c0d6a	-0.18440262058730222
235	0xbfd9e97aa083ea74	-0.40487542796441933
236	0xbfc1a8e451c1c4b8	-0.13796667091404458
237	0xbfc3a6ed8b833abb	-0.1535317355359974
238	0x3fb18cbe9e088005	0.0685538421462298
239	0xbf88af6957128d68	-0.012053320855847274
240	0xbfd7854bf33e7eab	-0.367510783713423
241	0xbfd0df38e54a3ab0	-0.2636244048270937
242	0x3fa096c75bcaaece	0.03240035052780642
243	0xbfd128f45c653b05	-0.2681246664332522
244	0xbf9373eee4dad8ef	-0.018996937483017836
245	0xbfb298ddef6fc567	-0.07264506431217442
246	0x3fd07d676ebad909	0.257654054770129
247	0x3f8b9a2c4eae2250	0.013477655554894913
248	0xbfcaefdd23458e3f	-0.21044506284953177
249	0xbfcf87c63ca920a9	-0.24633100473352457
250	0x3fcdee984e1f206e	0.23384383978396123
251	0xbfb22a77f7981b31	-0.07096051974086205
252	0x3fc6a1901878bf91	0.1768055076113311
253	0x3fbfc99f25625779	0.12417025244425685
254	0xbfa4d3981e439de6	-0.04067683572230489
255	0xbfc8e9963f5155b7	-0.1946285065811659

rnn.bias_ih_l0 f8 [40]
0	0xbfbaa3c2fa6f7f4f	-0.10406130422734104
1	0x3fd53bd3c8bc58be	0.33177656748865647
2	0x3fccd7c91cbfa805	0.22533525375121158
3	0x3fc2424e55198042	0.14264849810843044
4	0x3fd0dec9f4733b89	0.26359795448382123
5	0x3fd14f47019fe48c	0.27046370657587526
6	0x3fbe429f1b910e49	0.11820406363499915
7	0xbf9153b9b740a304	-0.016920949754566386
8	0xbfb31262c62d0c9e	-0.07449929559975252
9	0x3fafa24132a8eb0d	0.06178477996259888
10	0xbfc81279e52597c0	-0.1880638474351013
11	0x3fd6e27043832581	0.35757071106908006
12	0x3fcd305e2b79cba2	0.22803856966819774
13	0xbfd2a81472922548	-0.29150878132403024
14	0xbfd44aaa7b347946	-0.31705724746452224
15	0x3fcab451a7792636	0.20862789800075782
16	0xbfcb87238c133098	-0.21506161059949558
17	0xbfba0ae2a4bce284	-0.10172859689635955
18	0xbfbe9167af3de862	-0.11940620449414177
19	0x3fac04a49ead36de	0.054722923631386186
20	0xbf825b0a2ffcab1c	-0.00896270712799701
21	0x3fd8b6c7021abdc7	0.3861558456946707
22	0xbfd3a727b6f4f185	-0.30707733981014257
23	0x3fa01c7a216f6806	0.03146726282257366
24	0x3fc3f9bb1858c7cc	0.1560586804276326
25	0x3fc9f9340ed2cd34	0.2029175827388855
26	0xbfc8563909c782dd	-0.1901313112021147
27	0xbfd8a1ae44c41bbe	-0.38486820903238683
28	0xbfcfdd036e879a01	-0.2489322938628931
29	0x3fd44dcd307fdb03	0.31724862800858505
30	0xbfc41d514c8b1f06	-0.1571447013613964
31	0xbfa9bc19c61b676d	-0.050263219292630314
32	0x3fd0e0eb122be36a	0.26372792028956005
33	0xbfc086a2c9017e5f	-0.12910876097429289
34	0xbfd09281156c5c4c	-0.2589419087611915
35	0x3fc4cb101195bcb6	0.16244698389662
36	0xbfd387576bbfce93	-0.30513558885943687
37	0xbf655ea9565b04ba	-0.002608614670720569
38	0x3f6e28d254c4a46e	0.0036815746335788135
39	0xbfc89c15d94847a4	-0.1922633467625562

rnn.bias_hh_l0 f8 [40]
0	0x3fd648af01642027	0.34818625579692014
1	0x3fc37843b178b182	0.15210767903898775
2	0xbf7c6604680afe7d	-0.006933228695458757
3	0x3fa97508f46600eb	0.04972103103045974
4	0x3fc4531568e6771f	0.15878551122744342
5	0xbf94c121e601b6fd	-0.020267991698736932
6	0xbfc3b247123778cf	-0.1538781012486141
7	0xbfc38d9e56e81463	-0.15275935405239513
8	0xbfcd48e183168645	-0.22878664875774937
9	0x3fd5eca926551d5f	0.3425696253147716
10	0xbfd16f48d292cbe7	-0.2724172645932285
11	0xbf660fb03e6d4238	-0.0026930277121340017
12	0xbfa1c1b75218d178	-0.034681061526870616
13	0x3faa975c2b6ed5e9	0.051936035444139446
14	0xbfcc4f3b7668f279	-0.22116797715888817
15	0xbfc3cb294886d9cc	-0.1546374897131514
16	0xbfd3d19626099850	-0.30966714586827937
17	0x3fb16c3187431d7c	0.06805715133952178
18	0x3fb504ff50c217a6	0.0821075031436452
19	0x3fb54479d7569b6f	0.08307610995562496
20	0x3fadfc7d3400d542	0.05856696376614902
21	0xbfc88634fbca8471	-0.19159567160116667
22	0x3fc08ab8b2161cfb	0.12923344321846017
23	0x3fc20ce7465bda09	0.1410187810467536
24	0xbfc3543ff7a73832	-0.1510086020702502
25	0xbfcee406f12d32b2	-0.24133383537482228
26	0x3fbb5c41dc70fa47	0.10687648422115457
27	0xbfcf308709883769	-0.2436684414428172
28	0xbfd56c4c4743ccf3	-0.3347349830575716
29	0x3fad84e77bfed829	0.05765460384957095
30	0x3fd10eab99ba707b	0.2665204049351428
31	0xbfc66f253186d9cc	-0.17526688497828358
32	0x3fd24700422be36f	0.28558355772070504
33	0x3fa29d927bfa067d	0.0363584305132578
34	0x3fb02a866a4e8eb8	0.06314888091452076
35	0x3fc361b0e695bcb7	0.15141879328755234
36	0x3fb5eb1d7100c5c7	0.08561882027495137
37	0x3fae6b89ea9a4fba	0.05941420544436889
38	0x3fc2da4479531291	0.14728599475906326
39	0x3fd44d37935bdc2a	0.31721295729170385

V.weight f8 [1, 10]
0	0x3fc07d9f2b2d8de0	0.12883367164896153
1	0x3fd20ee01211cf2f	0.282157914777815
2	0xbfc6092aae5ef9a7	-0.17215474619110901
3	0x3fa18d2b188fea03	0.034280153988181204
4	0x3fbdaf71065c18bd	0.11595827489154238
5	0xbfdc48ba140f74e4	-0.4419388957883952
6	0x3fcea559bdbb5520	0.2394210983681342
7	0xbfd0d97e9198e455	-0.2632748052452077
8	0xbfcfe5102051224b	-0.24917794778800081
9	0x3fc227642d51dccd	0.14182712757949503

V.bias f8 [1]
0	0x3f60f64573ba797c	0.0020705563054683167

best_model_score f8 []
0	0x3f782ac478b87a73	0.005900161234903767

exp_avg f8 [40, 1]
0	0xbeda8ae5d28cacfe	-6.328241661172948e-06
1	0xbf21fae95def1d9d	-0.0001371774551144179
2	0xbf4507233e6770a7	-0.00064172001730924
3	0x3efc15acc97625a2	2.6783626336823075e-05
4	0xbec16bf56dcb613b	-2.0768301126455837e-06
5	0xbf42ee560d3997b3	-0.0005777282880898765
6	0xbf13d369e2439fc3	-7.562955630968566e-05
7	0xbf382a52f7d824d7	-0.00036873365010643477
8	0xbf34b0a5b0677ce2	-0.00031570477622540176
9	0xbf248547bb4a5d72	-0.00015655995016026662
10	0xbef3b016357e20ae	-1.8775786287090236e-05
11	0xbf24ddcd88a1d85d	-0.00015919813114678968
12	0xbf4796efcf1ec9c1	-0.0007198973601048529
13	0x3ef3c2c594417359	1.884539348427929e-05
14	0xbee4ec775d351817	-9.9771959073507e-06
15	0xbf48b7ef8dc08f44	-0.0007543487258811839
16	0xbf0c8b263d0228a8	-5.4442505303135575e-05
17	0xbf2a8da25a4ce8b9	-0.00020258528561518054
18	0xbf256c5eb90abc56	-0.00016344696316170315
19	0xbf1786e8cbfaf044	-8.974834326641682e-05
20	0xbf49771506686966	-0.0007771351491244027
21	0xbf4db38c9fa5f7d5	-0.0009064137114334023
22	0x3f5ba0fc2852ccf2	0.0016863310313908722
23	0xbf2a9a4d95f581ab	-0.0002029628476334482
24	0xbf0eafb3363e5258	-5.852952634125404e-05
25	0x3f6037fa7d816bf5	0.0019798176181615675
26	0xbf3bcf5d21f12c05	-0.0004243471502760057
27	0x3f479f91c7c63df2	0.0007209264581877191
28	0x3f4627333e60b645	0.0006760597432326562
29	0xbf467b0c2c8aedff	-0.0006860551303228822
30	0xbe8c094e3fab7c99	-2.0888708703642232e-07
31	0xbf3add946aa8c758	-0.00040993569806168284
32	0xbf3b2f53b4470caf	-0.00041480821189683164
33	0x3f0aa3539c4d8cb1	5.080794247793711e-05
34	0xbedac2f66e3244f9	-6.380456144887105e-06
35	0xbf479fd70c623101	-0.0007209587136159102
36	0xbf165933b54a3f95	-8.525255300129008e-05
37	0xbf4033ef2ca1add3	-0.0004944722979990885
38	0xbf386df5d7a27f63	-0.0003727650834068811
39	0xbf2ed30757d63608	-0.0002351709808120913

exp_avg_sq f8 [40, 1]
0	0x3e75e6032cb7feb0	8.157821723003388e-08
1	0x3e94da9a5c6d35c9	3.1074759159342053e-07
2	0x3ec648d67bc82cb5	2.656522126059231e-06
3	0x3e585cd64c211aee	2.2689481189959013e-08
4	0x3e6e522ed47e4c7c	5.647731399142703e-08
5	0x3ec7ffa85b033486	2.860863524834089e-06
6	0x3e98bca650d836cc	3.6860872473861595e-07
7	0x3eced298c20e8af8	3.674345422103954e-06
8	0x3ec9c4102b832ac6	3.071531264086299e-06
9	0x3ea23bd5128f797d	5.434072011220215e-07
10	0x3e5a49f7c32d5d29	2.448348030854601e-08
11	0x3eaf326092bc57ab	9.297366765105734e-07
12	0x3eca11421866827d	3.107477996880651e-06
13	0x3e4fd86f8426f9b3	1.4829193988104217e-08
14	0x3e62ef64231e0656	3.526941262569185e-08
15	0x3ece24f83c784fea	3.5934940319035703e-06
16	0x3e88d073e6d8f140	1.8488070756436378e-07
17	0x3ec8d0dc35c395aa	2.9582810566637537e-06
18	0x3ec560801fe0a268	2.5483316212947082e-06
19	0x3ea7e2647c8809e8	7.118089735971743e-07
20	0x3eef3250d346b714	1.4875672243199206e-05
21	0x3f02a509527dc4cb	3.556189250176477e-05
22	0x3f0f7f3e3f5a3153	6.007584299280951e-05
23	0x3ebd5a912a55d45a	1.7496214835520315e-06
24	0x3eefe3967fda9769	1.5205867380640053e-05
25	0x3f26b686729814de	0.0001732863541265344
26	0x3f0a0b5ff07b7b42	4.9675813043262396e-05
27	0x3efbc8b0232fcba0	2.64968277398737e-05
28	0x3ef8b215e5eb7310	2.355160392651922e-05
29	0x3ef58b6ad21d7cc6	2.054653044269714e-05
30	0x3e78905839d057ed	9.150745801408214e-08
31	0x3ec18840cc5e0e70	2.090005724876731e-06
32	0x3ebbf9fea83ffc28	1.6675318486034788e-06
33	0x3e638dfb32dadc1d	3.642330735408552e-08
34	0x3e7baf3825768d1a	1.0313261477336922e-07
35	0x3ed01f5515bfad97	3.843877802704903e-06
36	0x3e9f35cad2080156	4.6506711906537247e-07
37	0x3ed686b3760f46fb	5.370658841168234e-06
38	0x3ece73fc43b262d1	3.63028860090836e-06
39	0x3eb30a0588e24fcc	1.1348215909522356e-06

exp_avg f8 [40, 10]
0	0xbf11faaac0bbc62b	-6.858508293896479e-05
1	0xbf05dfd7389ad026	-4.172206452093844e-05
2	0xbef0b27a91d579c4	-1.5923674358980932e-05
3	0xbf07a10022557d02	-4.5068565934109156e-05
4	0x3ef66797585f448c	2.1366742224253113e-05
5	0xbeebb14aca3c67d7	-1.320483563165338e-05
6	0x3efa22db9e2cc7aa	2.492538795734854e-05
7	0x3f1a49605e09352e	0.00010027552299015217
8	0x3f1b83097733387d	0.00010494942926017772
9	0xbf1987bc7ad6ef71	-9.739005937253548e-05
10	0x3f079131be6eba89	4.49508004786064e-05
11	0x3eee89e1cc83385c	1.456194003459867e-05
12	0x3f00daec68a3531f	3.214868509507904e-05
13	0x3efa45733d915385	2.5054254227125094e-05
14	0xbeed01f63615eb6a	-1.3831931655818817e-05
15	0x3ef3722a367219ef	1.8545109381063197e-05
16	0xbeed1cb0d2413384	-1.388171819640696e-05
17	0xbf02d9f4e1d8d869	-3.595617839062608e-05
18	0xbf061bcfcf45082b	-4.216888365472822e-05
19	0x3f03c510496f13d6	3.770786241078627e-05
20	0xbf023dc5aa9b1850	-3.4792513657275746e-05
21	0xbf26e3605799a2c9	-0.0001746230225763339
22	0x3f2b5fc5b11cac52	0.00020884788733019577
23	0xbef95ccda129bd62	-2.418757692129509e-05
24	0x3ef014d67a7689e6	1.533641593954608e-05
25	0x3f297ce86aaaced9	0.00019445740811862322
26	0xbeec46f87624cd7f	-1.348363338546962e-05
27	0x3f21880d6dd46e7a	0.0001337543862199758
28	0x3f24405853bf13d3	0.0001545055218895851
29	0xbf154e44f82326d4	-8.12749476920797e-05
30	0xbf027a20928e3f14	-3.524219420747272e-05
31	0xbee3908894bb75d1	-9.329120664809423e-06
32	0xbefb03c6ef9e06a3	-2.5763277313745264e-05
33	0xbef809a40fa2d49b	-2.2924098609340524e-05
34	0x3ee6d7a05b07f77e	1.0892052928031722e-05
35	0xbef77d11d35cdaf3	-2.2400429961789763e-05
36	0x3eef282fbfb071fa	1.4856805128409836e-05
37	0x3f0741f7197ac3ef	4.436049783630008e-05
38	0x3f07cda12424af1e	4.540107740277757e-05
39	0xbf08a48a0ce0f15c	-4.7002280198135265e-05
40	0xbef3239f975c02ea	-1.8252519530473107e-05
41	0xbeead2b2340e037a	-1.2790218194559786e-05
42	0xbec7a071aad646d3	-2.8165262253098305e-06
43	0xbee75345f96fc885	-1.1122363316549508e-05
44	0x3ed94c2abe80483c	6.031400495503223e-06
45	0x3e9504ee7a0b9ba1	3.132114390472504e-07
46	0x3ed708efb138042c	5.49194989529857e-06
47	0x3ef7fce13dc39f06	2.2876560124367714e-05
48	0x3efa7676f406abbe	2.5236847479053385e-05
49	0xbef6861836719cc6	-2.1480376201668515e-05
50	0x3efe4d36595eb0d4	2.8897867728681245e-05
51	0xbf1d6826cbeaf307	-0.0001121781997239329
52	0x3f2960d0cc85a732	0.00019362019362328394
53	0x3ee973be56fcf210	1.2136518051535989e-05
54	0xbed8a7f96d22b8fd	-5.878484176031907e-06
55	0x3f25d45e5688c105	0.0001665463598938892
56	0xbefc65952ee0323b	-2.7081306079467507e-05
57	0x3f0c88b86aaaaacc	5.442440791133193e-05
58	0x3f10666a0052b8e1	6.256124477730135e-05
59	0xbeeb7b409f675891	-1.3104178816652597e-05
60	0xbf0e59c80d4e76be	-5.78893829363664e-05
61	0xbf121d051a2fa8e5	-6.909698144822207e-05
62	0x3f007609a79e2060	3.139702762583528e-05
63	0xbf02f863a1c16d58	-3.61829190473571e-05
64	0x3ef477ac114ad281	1.951929978601325e-05
65	0x3f03814bd3f264bc	3.720295580329202e-05
66	0x3eeafc5c4f9b8cca	1.2867824341572515e-05
67	0x3f1775193c817e4b	8.948294191801172e-05
68	0x3f1a3e4145e47527	0.00010010980028992267
69	0xbf13c94513310a27	-7.547840213909721e-05
70	0x3f204de201c9c0bf	0.00012439140199971795
71	0x3f0c5af70d61835b	5.408350413982937e-05
72	0x3f1200f6f793d0eb	6.86789261584196e-05
73	0x3f12c64e6d0b50f8	7.161954568896459e-05
74	0xbf04544f837c621c	-3.877513557721068e-05
75	0x3f0307dac4aac434	3.629814508111125e-05
76	0xbf040d3c219216a8	-3.8245580250379386e-05
77	0xbf1e99af79337894	-0.00011673100952999872
78	0xbf217ddaaf81442b	-0.00013345045568027963
79	0x3f1eb9f6c72bd09b	0.00011721199716047336
80	0x3f209b8b02071216	0.0001267058551218814
81	0x3f0e9e9e893a95b6	5.840226472501478e-05
82	0x3f10e091d9dcaf62	6.438150600434963e-05
83	0x3f130534ad2bb5a5	7.255682002567947e-05
84	0xbf04bc084e8eb746	-3.954792357006727e-05
85	0x3f00cb5fd71bbbc1	3.203283530505515e-05
86	0xbf03fb01e1df3f05	-3.810977453577554e-05
87	0xbf1f8b352604d6b0	-0.00012032997029084547
88	0xbf2214a1e7e2a414	-0.00013794399632630126
89	0x3f1f63a600ef0918	0.00011974049287658375
90	0x3f0716df9bd68049	4.403943919872915e-05
91	0x3eebf2649874f5a3	1.3326095326444633e-05
92	0x3f00dd4668e0a6cb	3.216620562824858e-05
93	0x3efa66a0c63e5d04	2.5177851412286532e-05
94	0xbeec5f07fddc9dfb	-1.3528449865753646e-05
95	0x3ef550c952b45168	2.032811350456809e-05
96	0xbeee5ece4f8681cc	-1.4481704497638306e-05
97	0xbf04217fd9d2dc6a	-3.839656276610137e-05
98	0xbf06dca517923742	-4.360560246495375e-05
99	0x3f053a7f878ac0dc	4.049016655949405e-05
100	0xbf0daaa4025a0c18	-5.658448234859714e-05
101	0xbf055bd409ec2bbe	-4.073849526350187e-05
102	0xbedadb713dc7eacf	-6.403254670046389e-06
103	0xbf025965a6565ad5	-3.499833546099165e-05
104	0x3ef37a942e94332d	1.857645375928916e-05
105	0x3eb3d1ef2ad16b0c	1.1813673766100395e-06
106	0x3ef27ae3c97b04f3	1.7623937849324663e-05
107	0x3f13f3d5d6f99995	7.611267732841037e-05
108	0x3f15a0f778593296	8.250723302545069e-05
109	0xbf12b5301191c9ef	-7.136445891989922e-05
110	0x3f103f3d6dcc4431	6.197750503768373e-05
111	0xbef08df821f9fdb3	-1.5787665800901743e-05
112	0x3f17ec7327ad5920	9.126141405366552e-05
113	0x3f0224ff40e1573c	3.460792514490974e-05
114	0xbef3dd8270b86866	-1.894499932406819e-05
115	0x3f1312223733b5a8	7.274946056031481e-05
116	0xbefc43337af1f0e6	-2.6953224445667392e-05
117	0xbf05422d6347f0a2	-4.0547380567774725e-05
118	0xbf0669e1e545a706	-4.27505553116225e-05
119	0x3f0d0ebc881ac1e2	5.542290547333788e-05
120	0xbf11227d553eff0f	-6.536378833654439e-05
121	0xbf338d9a8e3172ed	-0.0002983572323438783
122	0x3f366eec899a6070	0.00034230494348142567
123	0xbf074fac553bebcd	-4.446262997067456e-05
124	0x3efd3b24dac21136	2.7876883607295617e-05
125	0x3f359b33be19cf12	0.00032968533751119675
126	0xbef8726beb4c67d5	-2.3314437117872976e-05
127	0x3f2bfb8b000821f8	0.00021349021700724203
128	0x3f3093c4928a5266	0.00025294827586578303
129	0xbf20371fc149f96e	-0.00012371313700394341
130	0xbf0173b8c8394de4	-3.328712139407853e-05
131	0xbee8fcde1a059854	-1.1915094376657168e-05
132	0xbef55db469d3db29	-2.0376238002629797e-05
133	0xbef5c35d4f12d434	-2.075495007565851e-05
134	0x3ee6854003a6379b	1.073861505032272e-05
135	0xbef036b9638d41bf	-1.5462652501797973e-05
136	0x3eeaf9dd1351cfc0	1.2863173291167876e-05
137	0x3f053dc57cc9507b	4.051455434664425e-05
138	0x3f06342f57bbdb21	4.23504779671262e-05
139	0xbf05efc016680a1b	-4.1840600534488226e-05
140	0xbef2b9531682fa21	-1.7856525489129874e-05
141	0xbeee68f963c84ab6	-1.4500644391045796e-05
142	0xbe83dc04085c3b40	-1.4796433250209477e-07
143	0xbee6c6f5063edae9	-1.0861004007140531e-05
144	0x3ed98d389cabdc68	6.0919869138065775e-06
145	0x3ec9e377b98928bf	3.0861551290384027e-06
146	0x3ed53096165fac2f	5.052039659485119e-06
147	0x3ef86c0e3f361657	2.3290722265942257e-05
148	0x3efb13a5be0bda81	2.5822398927533803e-05
149	0xbef64c8489ba5f1e	-2.126588570536193e-05
150	0xbef4a2352f43648a	-1.9677757294587812e-05
151	0xbf32f55ea7199b41	-0.0002892833791520618
152	0x3f38efdadd003ce0	0.0003805074056808088
153	0xbef5bf7f7bfd8da5	-2.074054623281214e-05
154	0x3ee8d8c721519b8e	1.1847872011650788e-05
155	0x3f3708b72b29b4d6	0.0003514716328599348
156	0xbf0439bb85424c19	-3.857711331636138e-05
157	0x3f2748e40cdf118f	0.00017764838997725823
158	0x3f2bd3bf2e0ba6c0	0.00021230419863309778
159	0xbf16050aed892560	-8.399848173569957e-05
160	0xbf0379db0ea39c6c	-3.7147519678808926e-05
161	0xbf06fdad9b60fb73	-4.385171944009435e-05
162	0x3ef3f9d3524e395a	1.9050484428678522e-05
163	0xbef83212cd277bff	-2.3074721704815362e-05
164	0x3eea8d0727db6486	1.2660451143830261e-05
165	0x3ef8c732d92567fb	2.363025630223307e-05
166	0x3ee13cb5479a0ad8	8.219309381778656e-06
167	0x3f0d743bf2bf492d	5.617912242396532e-05
168	0x3f10892b536c8877	6.30791372313882e-05
169	0xbf08cfd433d37871	-4.732481327506054e-05
170	0x3f1965d2ccbeaa45	9.688471908356987e-05
171	0xbed004f736d29bce	-3.819321915766095e-06
172	0x3f1e3a89efe1e532	0.00011531321431048207
173	0x3f0d11b67786974c	5.544508070735743e-05
174	0xbeff4959f7fc03d2	-2.9837159217119807e-05
175	0x3f1730192c0652b9	8.845475804826032e-05
176	0xbf047d965f1597b5	-3.9082671615272615e-05
177	0xbf139b6ddb536d43	-7.479532253589376e-05
178	0xbf152011cefec155	-8.058651633180887e-05
179	0x3f17dd4771a2b902	9.103535231489229e-05
180	0x3f198fe3d255b443	9.751155865496499e-05
181	0x3ee53d96cb18607b	1.0128298842324232e-05
182	0x3f1918a8a2ce1877	9.573487541389586e-05
183	0x3f0d4547829d41b0	5.582928163383753e-05
184	0xbeffbebd9e673ddf	-3.0274468281464114e-05
185	0x3f1277e3bc3f045a	7.045104490456655e-05
186	0xbf034300a6d3767e	-3.673883188935483e-05
187	0xbf15993610037fa6	-8.239166709555923e-05
188	0xbf179d20f0dd87c8	-9.007943682839894e-05
189	0x3f18a6e763d8f930	9.403979580555467e-05
190	0x3f0c30831e3e816c	5.376720562755535e-05
191	0x3eda5be85f70a191	6.28447877829736e-06
192	0x3f0b53202781db7f	5.211774708951174e-05
193	0x3f0048f0d4de7a4f	3.1061029047697705e-05
194	0xbef173fd14aaaf2e	-1.664455457255005e-05
195	0x3f042dcab0857b6e	3.848814782502525e-05
196	0xbef5588326443ca8	-2.0356894666892375e-05
197	0xbf0864957f069841	-4.652577615908748e-05
198	0xbf0a92cd639a4622	-5.068482682902784e-05
199	0x3f0ba4cc376bf195	5.272625178595888e-05
200	0xbf3aafe0f4ce269d	-0.00040721170517397394
201	0xbf3e49e8057076c0	-0.00046216883259995664
202	0x3f2b423005616739	0.0002079661960035452
203	0xbf3275e447fbf470	-0.000281685097419721
204	0x3f20f78459934cd9	0.00012944689368641382
205	0x3f286ceaa2cdb960	0.0001863514347876889
206	0x3f1edb459a6700a1	0.00011770832370583624
207	0x3f480403f657051e	0.0007329005572317725
208	0x3f49a9ce6a3cf0b9	0.0007831819425301512
209	0xbf45235c997d725b	-0.0006450845857944408
210	0x3f457ec98bf31e91	0.0006559833635941416
211	0x3f3f51c7b154e96c	0.0004778969317446233
212	0x3f1775201830367c	8.948334111399421e-05
213	0x3f3911d7e261ed7a	0.0003825332700057787
214	0xbf2bb74709e85a66	-0.00021145574733401616
215	0xbf0e15ca1bc49606	-5.7382803307509013e-05
216	0xbf269dc8c5f1bfe3	-0.00017254901738139516
217	0xbf480a15f6869839	-0.0007336241952102868
218	0xbf4b94481b769f25	-0.0008416511617967733
219	0x3f460c5ede923ef4	0.0006728614072404036
220	0xbf558b0a86d0c65c	-0.0013148882674268924
221	0xbf42079a524cd24c	-0.0005502227328180813
222	0xbf472a9fd6dd74fe	-0.0007069855180180937
223	0xbf4aa224cfe9cb46	-0.0008127860781555827
224	0x3f3ae85b5455ec07	0.0004105780575042743
225	0xbf4063db878b4b4c	-0.0005001851960407615
226	0x3f3edd27b3aa15c7	0.000470945542169279
227	0x3f59130f7a71ea5a	0.001530423274543799
228	0x3f5ae83d87feaf6f	0.0016422844782750486
229	0xbf597384ac23a66d	-0.0015534206036655022
230	0xbf36c297ccfd9edb	-0.0003472920043265778
231	0xbf33b98fcd2a0ae0	-0.00030097733284876853
232	0x3f01fbdaca2d7025	3.430139010759972e-05
233	0xbf2e493543226797	-0.00023106360601304603
234	0x3f1cfce21eff09b6	0.0001105797780374455
235	0x3f09e40f037414c5	4.9382885146478875e-05
236	0x3f1ca36fc116738a	0.0001092469176655187
237	0x3f41835d54d21f84	0.0005344587058439963
238	0x3f42cbec746e5092	0.0005736259998792173
239	0xbf400f85a76ccdca	-0.000490131626838802
240	0x3f373faef6d57f1f	0.0003547479780845342
241	0x3f3526b18f139bee	0.00032274088796529945
242	0xbf0837bfdfc9ca80	-4.619173339372607e-05
243	0x3f2c90260fb004fe	0.00021791901221494126
244	0xbf1e46901e1e4e45	-0.00011549238800361804
245	0xbf1a02ff56714a04	-9.922679383692767e-05
246	0xbf18131330e2c8df	-9.183697349860212e-05
247	0xbf3f06b2c4c7bce7	-0.00047342171163129585
248	0xbf4167c98f2f43de	-0.0005311712433188028
249	0x3f3b9188fe8f1146	0.0004206618746674006
250	0xbf5dc2eaf5182588	-0.0018164915567261148
251	0xbf530aef7a0e5c30	-0.0011622751846738326
252	0xbf3d0ee07203396c	-0.00044339160559738497
253	0xbf51e86dd431fa11	-0.001093013052723916
254	0x3f42f12635b272ad	0.0005780636378350433
255	0xbf1cba751f3c553d	-0.00010958995681805291

exp_avg_sq f8 [40, 10]
0	0x3e247052bf02c746	2.3793851265028557e-09
1	0x3e496ba0f82c61a9	1.1837307805444707e-08
2	0x3e5188b5eb2f7acf	1.6329834106347122e-08
3	0x3e20d56b682cffac	1.9596971280162484e-09
4	0x3e0d226c9eff03c9	8.479246731768328e-10
5	0x3e40819435b9c905	7.686283324418551e-09
6	0x3e0b66cef4bd8f87	7.97491386713685e-10
7	0x3e516bd07efbf705	1.6224710407643948e-08
8	0x3e5537053239924a	1.9757936743630047e-08
9	0x3e430819c5def144	8.862299501779217e-09
10	0x3e356c244d36dbcc	4.987797913778726e-09
11	0x3e69264b5155ac6d	4.684475577828165e-08
12	0x3e738393829b1de9	7.269520154860601e-08
13	0x3e239eee2b0dbe89	2.2841642678245773e-09
14	0x3e136edf0b01ffa9	1.131154763633233e-09
15	0x3e60483f405934c0	3.032798904772495e-08
16	0x3e000a394761cd37	4.668235925980132e-10
17	0x3e701ad179bebd2e	5.999490187870696e-08
18	0x3e74893821c9cf33	7.650260908949444e-08
19	0x3e627dbad180d578	3.4442417085418206e-08
20	0x3e5b7e43fd3b352d	2.5605061028737283e-08
21	0x3e94148e2bed0dbb	2.9921970317125247e-07
22	0x3ea080e1b267abb3	4.918409544617995e-07
23	0x3e5307e877b61f6b	1.7723898332956228e-08
24	0x3e41f0c0b10af060	8.354168497058121e-09
25	0x3e8c700cc2299195	2.118773361924909e-07
26	0x3e33244176eceb6d	4.456756615498871e-09
27	0x3e9b1791df2fc6d0	4.0370329584738175e-07
28	0x3ea0a529c7470191	4.960646849336706e-07
29	0x3e8dc0df6b2407b8	2.216801725033436e-07
30	0x3e0b36fceb551f2d	7.92054830286484e-10
31	0x3e2ce11d138a93fb	3.3619988150471215e-09
32	0x3e2f30b1f0d76b8b	3.6310189358116135e-09
33	0x3e06d619d3971702	6.646247226012918e-10
34	0x3df2a8adedd6fe59	2.715227884890295e-10
35	0x3e24460f59c66a06	2.3601660193929237e-09
36	0x3df16ede530b23b2	2.5368470088798485e-10
37	0x3e33d32c78af2a9f	4.615843605729809e-09
38	0x3e375d04c4e552dd	5.439704754636671e-09
39	0x3e241316a1f4b97b	2.336986839851196e-09
40	0x3dfdc3b3b9afe0e6	4.3312991534259894e-10
41	0x3e12adc6935f6c4e	1.0872499129231187e-09
42	0x3e3a5f7f4531d5f3	6.140450886575206e-09
43	0x3e1f6c55bebcdd52	1.8290700021855458e-09
44	0x3e0ef3f24b638b76	9.008484156359498e-10
45	0x3e066ee56ea10730	6.52891710537326e-10
46	0x3e1191872091fcdd	1.0226194355556795e-09
47	0x3e3f39a6fcd29f07	7.270184410362022e-09
48	0x3e3c00b5c1b656d5	6.5199037517818866e-09
49	0x3e285c52b981407b	2.8359514285875724e-09
50	0x3e60cb74ba35f89b	3.128265937522297e-08
51	0x3e9854a9d6dd9b6d	3.625559291592609e-07
52	0x3ea339cc417d01cb	5.72972683500532e-07
53	0x3e52490e4a9aef5a	1.7029581889383678e-08
54	0x3e410475179b7933	7.924349832081293e-09
55	0x3e917e712426fed5	2.6067963090554785e-07
56	0x3e2aa8ce95c72b96	3.10356289125186e-09
57	0x3e9eac55d0c13e80	4.5706606566652035e-07
58	0x3ea32fe9c3a6fe4e	5.718219491731664e-07
59	0x3e90bb7328375c1f	2.493295953842617e-07
60	0x3e29bbab791a71b4	2.995725397631609e-09
61	0x3e3755b4529596ba	5.4330524882397085e-09
62	0x3e65096005ac1272	3.9183760866218937e-08
63	0x3e4c600ff26a0219	1.3213252337110196e-08
64	0x3e3c59c56679ada9	6.6009043574914174e-09
65	0x3e27cf077268e4e0	2.7716983320279384e-09
66	0x3e409c56fea6163a	7.734961078553111e-09
67	0x3e6a6d7145c3946b	4.922507265847458e-08
68	0x3e673a28252d970a	4.326398496990857e-08
69	0x3e546286326e2e3d	1.898488046938557e-08
70	0x3e618f3d200445b6	3.270716675459625e-08
71	0x3e9502f82bbf08d1	3.1309722791859354e-07
72	0x3ea4d632b77526e7	6.209823898786213e-07
73	0x3e69059bd1bd359f	4.660693716952429e-08
74	0x3e5849879b1629cb	2.2619241318110062e-08
75	0x3e8bcb51254a1f82	2.0708297889339956e-07
76	0x3e53f0da9f7c4e54	1.8571350650951623e-08
77	0x3ea2adbfa8aa12e9	5.566688100066682e-07
78	0x3ea5719163e14f62	6.390698172966536e-07
79	0x3e93739193f9a40a	2.898490442994366e-07
80	0x3e632d2390f7d19e	3.5718686782542336e-08
81	0x3e972ed5b45e1583	3.454528506519201e-07
82	0x3ea4ae3cdb261a98	6.163303878793927e-07
83	0x3e62fd06bb974934	3.53686213195826e-08
84	0x3e52c5a2f7b2b863	1.7482804076547677e-08
85	0x3e8e31817ef7f5d5	2.2495822758754385e-07
86	0x3e4ba5333e7c8990	1.2873352120037319e-08
87	0x3ea1eb3c34893d34	5.340244593840462e-07
88	0x3ea5836a9ea81b19	6.411476623509733e-07
89	0x3e9367a9fe8afd91	2.8915610398788127e-07
90	0x3e3bb0cfa13ebe75	6.447236095623222e-09
91	0x3e71a3be8f878e2e	6.571272937561395e-08
92	0x3e7d10028d5fb422	1.0826639437718607e-07
93	0x3e31805e915b3c00	4.074872236253583e-09
94	0x3e213b741069940e	2.0060967360375727e-09
95	0x3e6751215a466e1c	4.343113893802349e-08
96	0x3e13b8e16bf66239	1.1479825283518134e-09
97	0x3e781e74027d6720	8.985011900938362e-08
98	0x3e7e07433ca897db	1.1186439433842724e-07
99	0x3e6b4bbfcea346fb	5.084256733820534e-08
100	0x3e104973c81c5fed	9.480236877150394e-10
101	0x3e2ebcd428205a62	3.57832902285734e-09
102	0x3e34301f90964443	4.7003807594339515e-09
103	0x3e0cb9b1d0710d1a	8.360182831457337e-10
104	0x3df945e9e21f4db0	3.6777200913332764e-10
105	0x3e2278dd4b6d9d23	2.150438573240841e-09
106	0x3df9233442bea709	3.657990045805861e-10
107	0x3e36e2b1ad9919ac	5.328451202463835e-09
108	0x3e3b4434ac91596b	6.34846015434524e-09
109	0x3e28a3731797e090	2.8682959867886597e-09
110	0x3e57137e272c5520	2.1491333555732845e-08
111	0x3e8b930acce92b58	2.0544516706114352e-07
112	0x3e933ee6589d2e95	2.867833123101278e-07
113	0x3e3f409f834f36d0	7.2765243179427636e-09
114	0x3e301679b9e8428b	3.745731640237634e-09
115	0x3e82241a859266d9	1.3516120381668354e-07
116	0x3e13cd17e73a8a2f	1.1525783911610043e-09
117	0x3e8eec0355ae3882	2.303863010058248e-07
118	0x3e94916d065287d0	3.06488124055435e-07
119	0x3e81cd743dd43e4a	1.3263937052213646e-07
120	0x3e6f27c3086cf3fe	5.803130514188104e-08
121	0x3ea3d7cb50ef40a4	5.913658770399268e-07
122	0x3eac2235c532f49c	8.384475997030537e-07
123	0x3e5bdc79051a969e	2.594778464891982e-08
124	0x3e4a040a248dc800	1.2114541496461656e-08
125	0x3e9bb4fb1bdb4e7f	4.1286582673253714e-07
126	0x3e349ede00b9b0df	4.801101748460533e-09
127	0x3ea71037d7adead0	6.873414542940356e-07
128	0x3eadca9b4afd04ac	8.878538632976652e-07
129	0x3e999e9d1592b459	3.817615570982941e-07
130	0x3e030b7358d548c0	5.542745582529466e-10
131	0x3e2268c1f22a44ae	2.143114034605032e-09
132	0x3e243beb75dbe914	2.3555547919095285e-09
133	0x3e01573d6acefcaa	5.046831473713411e-10
134	0x3ded07bc595e2a37	2.1122263372731402e-10
135	0x3e192921aade465b	1.4645437462360752e-09
136	0x3debcf516be1fa24	2.023431890282187e-10
137	0x3e2a65f2acea33a4	3.0731589281327748e-09
138	0x3e2ec21f32577ebd	3.5807360572582937e-09
139	0x3e1a19cfec25165c	1.5192681978612192e-09
140	0x3df58221b816d18c	3.129873513914435e-10
141	0x3e08d63e8ebeb23c	7.228486953879869e-10
142	0x3e328e3ffccf5a70	4.3203271628263445e-09
143	0x3e1784037a047239	1.3687926140363012e-09
144	0x3e0756d913058dc8	6.792615689048519e-10
145	0x3dfbf77831dd6531	4.0696872422795713e-10
146	0x3e0ad3b1de58d41f	7.807665041350184e-10
147	0x3e3686b12d8cf7c7	5.244775912886187e-09
148	0x3e342b9cbfac2385	4.696278028576653e-09
149	0x3e2167aee04da53b	2.0262100907060714e-09
150	0x3e731c210f40c81b	7.118984851685125e-08
151	0x3ea82811972e284e	7.199203494328943e-07
152	0x3eb02707bc82dd3b	9.627617476979403e-07
153	0x3e5c03aa1f566f07	2.6090363610544267e-08
154	0x3e48fb11bd3b8a47	1.1632563280199978e-08
155	0x3ea15eaf073efed0	5.176621145005733e-07
156	0x3e2a0d0d32883e41	3.0327335263383154e-09
157	0x3eaa0a443d952aaa	7.760555675110266e-07
158	0x3eb1150c117564ad	1.0181793806600845e-06
159	0x3e9c5988b496ddae	4.2244407846443016e-07
160	0x3e1c329a25265cef	1.641320097715336e-09
161	0x3e2697eb8f32fd37	2.630222367677572e-09
162	0x3e570447a107168b	2.1435989040901478e-08
163	0x3e405ed1cd83d346	7.623056339360405e-09
164	0x3e305af87b4bc684	3.808027605689516e-09
165	0x3e16942535d3aef1	1.3142528934129432e-09
166	0x3e334fdf01032a15	4.496424580063286e-09
167	0x3e5d1af321fa3bb8	2.710639723665774e-08
168	0x3e59548a64bf27b7	2.359062127569865e-08
169	0x3e45e7bfa0d156af	1.0200435185895555e-08
170	0x3e65e214e3954366	4.0760508255639446e-08
171	0x3e9be320051ea32d	4.1555177176604495e-07
172	0x3ea7c75a54f3fb92	7.086611421290766e-07
173	0x3e64b000ecbec2b0	3.853349780870798e-08
174	0x3e544271a0ba1e50	1.8868172842302635e-08
175	0x3e92d69ef338b455	2.8071348198954884e-07
176	0x3e4cc42cf4947d4e	1.3395357394975132e-08
177	0x3ea43e0270314f7e	6.032653064960044e-07
178	0x3ea895eba469210e	7.327087779363606e-07
179	0x3e958f795598f418	3.2127566882198495e-07
180	0x3e65f8609135f5ac	4.0922730227908034e-08
181	0x3e9c20019ea39a03	4.190955268504382e-07
182	0x3ea6ae4155d15035	6.759370695477253e-07
183	0x3e5f460a6e758197	2.912580656983014e-08
184	0x3e4f8478ec569548	1.467646571879409e-08
185	0x3e92b3d581907e21	2.7868861846196375e-07
186	0x3e43cd993012bdd1	9.221545751259243e-09
187	0x3ea2c065307fc1eb	5.588395604033506e-07
188	0x3ea783ac5f2ced30	7.007822076863132e-07
189	0x3e9496e699a1dff5	3.0680680541223954e-07
190	0x3e4e4d942586a27b	1.4110953448107554e-08
191	0x3e82af9e6608908f	1.3922162890687408e-07
192	0x3e8c07797beb9c19	2.0883379466611923e-07
193	0x3e3ae3133bcd3953	6.260120363777654e-09
194	0x3e2b86f077c8b06a	3.2045769911555462e-09
195	0x3e786f926bf36a23	9.103055286248957e-08
196	0x3e19e4ef309e947b	1.5072451641626639e-09
197	0x3e86c679a66c5498	1.69689161576854e-07
198	0x3e8d8a76874e2f05	2.200966410483418e-07
199	0x3e7a4b7bef4b5571	9.795598627665935e-08
200	0x3e7e18bb44d0c28f	1.1211859991876876e-07
201	0x3ea1b4f50d309a9f	5.277056750505326e-07
202	0x3ec0f1ecf7a64388	2.0200040442082066e-06
203	0x3e9d33d07ac0fd23	4.351496680799927e-07
204	0x3e8cf2f68217f21a	2.1568740841961273e-07
205	0x3e94e929e1f0a43e	3.115951318655218e-07
206	0x3e8fbbf64fe0d992	2.3643841723522734e-07
207	0x3ec2c12758c349ac	2.2357114116491267e-06
208	0x3ec21ffb2140bf63	2.1606595144371023e-06
209	0x3eb0888fa7a40ad7	9.85469937265259e-07
210	0x3e9a10f9811c3f65	3.884182443328597e-07
211	0x3ecb45cded608b40	3.251156026188971e-06
212	0x3edacf2ed29dbb9d	6.391837169646578e-06
213	0x3ea10a9ad8b15dbf	5.078740498249287e-07
214	0x3e908c9a55703ef1	2.4660274306006294e-07
215	0x3ec0f2fc5c666e54	2.020497706213014e-06
216	0x3e8a61cc5a1a1fca	1.9656139920256502e-07
217	0x3ed8c60a5fd9e4c8	5.9064855101261625e-06
218	0x3edc95fe725a4416	6.8154129501266625e-06
219	0x3eca168c3bdd21ea	3.1099411605154525e-06
220	0x3ebc2ab833cda70b	1.6788764718119258e-06
221	0x3ee7014cd28052ed	1.0969676239405582e-05
222	0x3eec5b64841ba02c	1.3521672488761646e-05
223	0x3eaac3c566a16417	7.976511373727275e-07
224	0x3e97137d198afb30	3.438610974119308e-07
225	0x3edcd9a8972efa62	6.878430542421768e-06
226	0x3e8b144cbaef851b	2.0175647594183878e-07
227	0x3eecf8b8850d618c	1.3814718984470735e-05
228	0x3ef274d84dac17c2	1.760141899877894e-05
229	0x3ee099378726629b	7.9147832579435e-06
230	0x3e6c33132dc6c14b	5.25256831114692e-08
231	0x3e904ffa434cb36e	2.4307388750665105e-07
232	0x3e93810441873901	2.906318186363897e-07
233	0x3e67e7a663744028	4.452631368657744e-08
234	0x3e5520d1b33737cc	1.9677169405857017e-08
235	0x3e837d6b65e1e10a	1.4521121988512856e-07
236	0x3e5532e6ba832b3d	1.974295185738098e-08
237	0x3e9956a5631aeec8	3.77572493364303e-07
238	0x3e9df3e991b9bd5e	4.4633124372021783e-07
239	0x3e8bc9482742755e	2.0702374892582903e-07
240	0x3e7e4a7393f4030f	1.1284212052612911e-07
241	0x3e9bf996f6cea850	4.1685938506153497e-07
242	0x3ebf72732591adbe	1.8743914067764583e-06
243	0x3e9f3aef420aba3d	4.6536644230768355e-07
244	0x3e8f0dcf47b31847	2.313699133169985e-07
245	0x3e903014f2691586	2.41217309602679e-07
246	0x3e913630d8ba3043	2.5647406041366853e-07
247	0x3ec235dbba3ba3ee	2.17084694208559e-06
248	0x3ec10dfee4be269f	2.0330751677219667e-06
249	0x3eae795e4f6073ed	9.081988128243681e-07
250	0x3ec69138c32ba035	2.6902285069526024e-06
251	0x3ef3e47780a297bb	1.8970917189740687e-05
252	0x3f01047cf5e9f32f	3.2458365912346714e-05
253	0x3ec87c8bfa8c47d3	2.9190195686224097e-06
254	0x3eb78a04bcbb40fb	1.403041767145866e-06
255	0x3ee8ae6336a44046	1.1768913925652832e-05

exp_avg f8 [40]
0	0xbf41362fb914ce70	-0.0005252583525021236
1	0x3eed08142dd09521	1.3843325570370994e-05
2	0xbf3f634456fcc930	-0.00047893923236865237
3	0xbf32d8938a5292ba	-0.0002875671583047291
4	0xbf1ac2caa81abd5d	-0.00010208475034788806
5	0xbf2e28a5722acbe4	-0.00023009318927832902
6	0xbf33a7b023d95039	-0.00029991197866264006
7	0x3f03a7782d7ea224	3.7487368614922794e-05
8	0x3f1f2c9dea0169bb	0.00011892045813636277
9	0xbec6db6aa2c2f496	-2.72477816140469e-06
10	0xbf36dff99a14781a	-0.000349043310125087
11	0x3f354f3ed900036c	0.00032515797011006017
12	0xbf306a159ee6ce33	-0.00025046375130985675
13	0xbf2dcc5f6df8ce5d	-0.00022734322463834308
14	0xbf1a02d59c6f0f56	-9.922436502934664e-05
15	0xbf11cb07079d9c7f	-6.787519842320516e-05
16	0xbf2acbfefa1f7e72	-0.00020444381249172836
17	0x3f4099c578ce3ea2	0.000506612226319054
18	0x3f406e377022fece	0.0005014200871968578
19	0x3f32822410258764	0.0002824152035342169
20	0xbf7038e880bcce4b	-0.003960521902445511
21	0x3f514813c4616f7d	0.0010547822035027181
22	0xbf7c0e4e51dcb534	-0.006849580704323888
23	0xbf667c44cf53b8f0	-0.0027448028509900954
24	0x3f569d70cbf04cdc	0.0013803102044718718
25	0xbf79de0d445c332d	-0.006315280746787261
26	0x3f61ee3e0c15a64b	0.0021887981280784056
27	0xbf3d4ec6236a25b0	-0.00044720017778184917
28	0xbf03338b00427995	-3.66236490958349e-05
29	0x3f3cbedc7ad0328e	0.0004386223106969477
30	0xbf43e26c5d33d27b	-0.0006068257447667391
31	0xbf2e9a5c8ce621b9	-0.00023348216786823835
32	0xbf34c010fcb32d3e	-0.0003166238281664019
33	0xbf364c13022a8586	-0.0003402277381302155
34	0xbf23e491ff9f489c	-0.00015177042206332848
35	0xbf3c4b88d96596a8	-0.00043174830479695636
36	0xbf367f1c814ad71d	-0.00034326978611019956
37	0x3f04622b54375cd1	3.887839059373846e-05
38	0x3ef0cf9b3a29f885	1.6032183007379692e-05
39	0xbef1e939f9f8d013	-1.7081299686874727e-05

exp_avg_sq f8 [40]
0	0x3e93dfa46a7ce813	2.961397549298505e-07
1	0x3eac51cf6f21c9ea	8.439889980351495e-07
2	0x3eda9c604cea167c	6.344519717265564e-06
3	0x3e75a93605adf10a	8.069344074700595e-08
4	0x3e90ba09cf312a02	2.492474344180515e-07
5	0x3ed9e8c68cccef58	6.177253635549492e-06
6	0x3ebea608f20a6988	1.8267973659670843e-06
7	0x3ee88ae89dc9f4d6	1.1702829334265407e-05
8	0x3ee45b5b22f6519e	9.70690697847041e-06
9	0x3eb8ea0f4e83b44f	1.4850077665843388e-06
10	0x3e7ba5e356a31e76	1.029968267645528e-07
11	0x3ec6155c103e6ad6	2.632550719595043e-06
12	0x3ee0a2847ad6fdb2	7.932106963147833e-06
13	0x3e6d3be134ac07a6	5.445239155932221e-08
14	0x3e868a55cbb60e20	1.679388555824848e-07
15	0x3ee06451f5700d8f	7.816255374499033e-06
16	0x3eaee211f79a3970	9.203877048989976e-07
17	0x3ee3565559ce0fc2	9.22071449750001e-06
18	0x3ee09426200f1423	7.90534341089429e-06
19	0x3ec2311917b87d9d	2.1686302582727045e-06
20	0x3f12ba395783d88b	7.143950449859015e-05
21	0x3f201edaab01207a	0.00012298983847558784
22	0x3f2a24fa5234453b	0.00019946628263104748
23	0x3edfc45bade6b456	7.573848704129051e-06
24	0x3f12e44a26e4a88f	7.206633174364401e-05
25	0x3f44ce5fe4600c62	0.0006349533293818039
26	0x3f2d013f5a9238cc	0.00022128961908091658
27	0x3f188262d898883a	9.349563892915936e-05
28	0x3f158b9fec62366d	8.218921274957278e-05
29	0x3f123a935ff1d6a3	6.953739647194228e-05
30	0x3e96929a1d56c0fe	3.363589063621951e-07
31	0x3ed2e266db43fd77	4.502387515480938e-06
32	0x3ed16d26c43a3054	4.15477103711197e-06
33	0x3e807668c5d3755d	1.2265545282819515e-07
34	0x3e9f03340e5ff3e2	4.6212245619054136e-07
35	0x3ee07a8bacf65e76	7.857653513451023e-06
36	0x3ec33c23c1156e23	2.2929812152747204e-06
37	0x3ef05b7704b2f2c7	1.55995224246804e-05
38	0x3ee5ce7a497a75f1	1.039817497821679e-05
39	0x3ec866c078619232	2.9088705018490445e-06

exp_avg f8 [40]
0	0xbf41362fb914ce70	-0.0005252583525021236
1	0x3eed08142dd09521	1.3843325570370994e-05
2	0xbf3f634456fcc930	-0.00047893923236865237
3	0xbf32d8938a5292ba	-0.0002875671583047291
4	0xbf1ac2caa81abd5d	-0.00010208475034788806
5	0xbf2e28a5722acbe4	-0.00023009318927832902
6	0xbf33a7b023d95039	-0.00029991197866264006
7	0x3f03a7782d7ea224	3.7487368614922794e-05
8	0x3f1f2c9dea0169bb	0.00011892045813636277
9	0xbec6db6aa2c2f496	-2.72477816140469e-06
10	0xbf36dff99a14781a	-0.000349043310125087
11	0x3f354f3ed900036c	0.00032515797011006017
12	0xbf306a159ee6ce33	-0.00025046375130985675
13	0xbf2dcc5f6df8ce5d	-0.00022734322463834308
14	0xbf1a02d59c6f0f56	-9.922436502934664e-05
15	0xbf11cb07079d9c7f	-6.787519842320516e-05
16	0xbf2acbfefa1f7e72	-0.00020444381249172836
17	0x3f4099c578ce3ea2	0.000506612226319054
18	0x3f406e377022fece	0.0005014200871968578
19	0x3f32822410258764	0.0002824152035342169
20	0xbf7038e880bcce4b	-0.003960521902445511
21	0x3f514813c4616f7d	0.0010547822035027181
22	0xbf7c0e4e51dcb534	-0.006849580704323888
23	0xbf667c44cf53b8f0	-0.0027448028509900954
24	0x3f569d70cbf04cdc	0.0013803102044718718
25	0xbf79de0d445c332d	-0.006315280746787261
26	0x3f61ee3e0c15a64b	0.0021887981280784056
27	0xbf3d4ec6236a25b0	-0.00044720017778184917
28	0xbf03338b00427995	-3.66236490958349e-05
29	0x3f3cbedc7ad0328e	0.0004386223106969477
30	0xbf43e26c5d33d27b	-0.0006068257447667391
31	0xbf2e9a5c8ce621b9	-0.00023348216786823835
32	0xbf34c010fcb32d3e	-0.0003166238281664019
33	0xbf364c13022a8586	-0.0003402277381302155
34	0xbf23e491ff9f489c	-0.00015177042206332848
35	0xbf3c4b88d96596a8	-0.00043174830479695636
36	0xbf367f1c814ad71d	-0.00034326978611019956
37	0x3f04622b54375cd1	3.887839059373846e-05
38	0x3ef0cf9b3a29f885	1.6032183007379692e-05
39	0xbef1e939f9f8d013	-1.7081299686874727e-05
