darts_logs/2023-06-13_06_53_46_torch_model_run_20030/checkpoints/best-epoch=94-val_loss=0.00.ckpt (torch, 22115 bytes, 19 tensors)

rnn.weight_ih_l0 f8 [40, 1]
-0.4352153355097895 -0.6324427392190112 1.2789734980419993 0.9585021631588111 0.380607529654524 0.14487390336924777 0.8829511027478265 0.14693210411993088
0.14069065752197768 3.201866692937606 -0.7936063881908536 -0.6722317746648631 0.41211100061493383 0.5888287910915642 -0.4278213756344188 -0.0008622724888447739
0.3945123241598142 -0.6650621443987823 0.038226135389640106 0.27006320555853536 -0.2903973333084854 -0.285431047748209 0.1286876631187381 -0.33892442379014104
-0.27011048716423597 -0.31684516877895647 0.38636372198838564 -0.3746374190427884 -0.2218665565715181 1.4765833492405254 -0.9810617078433826 -0.32682579409260337
1.475367389611374 0.9716186846433544 -0.25168040427384836 0.23292636411132958 0.7080118852074979 -0.4087462822454352 0.046674722442315415 2.177131936895623
00000000: 96dc 2e6c 91da dbbf d539 318e f83c e4bf
00000010: 60a8 28ea ac76 f43f f831 7dba 0cac ee3f
00000020: dd8f 1eaf df5b d83f 6ce4 8162 3a8b c23f
00000030: 109c c8ab 2241 ec3f 9dba f6d2 abce c23f
00000040: c66e 74c6 2602 c23f ae8c e248 6c9d 0940
00000050: 0ba5 6539 3965 e9bf 6990 f035 ec82 e5bf
00000060: 69a1 7dd1 0660 da3f b8ce 157a afd7 e23f
00000070: b64a 38e8 6c61 dbbf 3be9 e511 4441 4cbf
00000080: 9ea9 889e b03f d93f 4603 0068 3048 e5bf
00000090: aab2 b342 6092 a33f 7684 ee2e b748 d13f
000000a0: a2f4 59b2 de95 d2bf 51dc d595 8044 d2bf
000000b0: c72f 3f5c d678 c03f 9da2 ff10 f0b0 d5bf
000000c0: 5154 2b7f 7d49 d1bf 2947 73f5 3047 d4bf
000000d0: ce42 93e7 2eba d83f 4962 a939 0ffa d7bf
000000e0: c080 4692 1f66 ccbf 35e6 acdc 15a0 f73f
000000f0: 9172 d185 db64 efbf 4c7c 47bc b6ea d4bf
00000100: ad73 ffd5 1a9b f73f 4d39 5711 8017 ef3f
00000110: 7d9d 5920 881b d0bf 23ff 1df6 87d0 cd3f
00000120: 04a8 848a 08a8 e63f 46c4 a62a e628 dabf
00000130: 2116 e1cc bfe5 a73f c759 2026 c46a 0140

rnn.weight_hh_l0 f8 [40, 10]
-0.04090967160337108 -0.06755542309960065 0.17999860057874856 0.23384786607266828 -0.23170560405595708 0.09629442314563921 -0.12426142828034024 -0.2896615363987174
-0.3328505935240042 0.21834829139042997 0.20906037015232118 -0.009459532489838713 0.10727411355026113 0.010691551936270617 0.05769838978771956 -0.21123565456765134
0.22215027658355233 -0.27129600666329284 0.020604306371353034 -0.05049582123592689 -0.27086441091692387 -0.17740662940720947 1.4512511974856097 0.6037800621810511
0.24188380689595562 0.44671925125948325 -0.25142919092543137 0.1128661955982409 -0.3083089518375017 0.0014455680201358077 -0.7145895826516081 -0.344400620618036
0.14120484341237372 -0.2341082528349236 0.13699633688918522 0.06102823348501312 0.8004049335155573 0.2707896762979751 -0.32904713459963625 0.37723761424386965
-0.5353939633100477 -0.3013479228353985 0.19296718566629323 -0.18529034919561663 -0.12569670115542828 0.2564516765849665 0.4024636516967956 0.031224881860517816
-0.40670081421754123 1.5641676311857802 0.13514456681439166 -0.06654359309755459 -0.15227376123709407 0.17629537011563792 -0.7023712052117461 -0.3777153478508753
-0.6197149582116079 -0.6093206517472873 0.5885210512629399 -0.05248100286061675 -0.6479083642490308 -0.4328759055936759 0.023722707087038213 -0.11709185128185685
-0.08989283520076306 0.39902529426218397 0.5992038620820722 0.41364080903819844 -0.24026922970533152 0.32008905477736854 -0.018565068792039768 -0.14943265386864318
0.2596419573168067 -0.2861761438498048 -0.1030218914065636 0.07761809076770132 -0.13875057216139058 -0.338153218265898 0.08387870927391465 0.04585744701814712
0.3074110735295247 -0.31450377810234886 -0.05004336116749529 0.24441337916122743 -0.30919506709934597 -0.1257636549822641 0.13432127576700761 0.004760448297383537
0.2767368015904135 -0.19959444953334998 -0.2701447381364917 0.215187962677037 0.3647417190862191 0.2411101793276975 -0.07386727027014602 -0.547066628751141
0.6104618934703807 0.21808375501503835 0.23605876380998472 1.6652852526939408 0.24467350149051914 -0.3716622195917261 0.015050586068226209 0.009117648670663468
0.0042640705621394695 0.36166924362692277 -0.12635757608511658 0.12899877635165694 -0.210083030648275 0.12097028908194155 0.42126697586137757 0.23241941570133734
-0.25078596140524817 -0.05132011057795016 0.25197245451379224 0.3658787872057953 -0.3390063478404384 -0.06360538230860895 -0.25495869299923696 0.15410306594600612
-0.22928974349568415 0.08441724571533576 0.26782815269106147 0.3038449109894053 -0.0800564675367731 0.24314280127863522 0.014941166606276658 0.38067046622487793
0.061647708992534404 0.43170931784430555 -0.7003033389676996 -0.3023251768598254 0.2658205922903801 -0.3473386462889196 -0.10620858147869291 0.030266062085678253
0.3139501725664032 0.2149060419135939 0.07043292564418266 1.0217557830664807 -0.6160471504931927 -0.001202084131388658 0.19211249820858384 -0.20036662899714902
0.20909894556145986 0.06704571227840854 0.32136694083059514 -0.04979421303689938 -0.273796136845131 0.44010056757562355 -0.13111589062581303 -0.23266342295164794
-0.273702873494385 -0.17084389957478022 0.13815286412808422 -0.014394419522638197 0.13108735127252374 0.036620580502317125 -0.11484317425373944 0.0070428340425850305
-0.11752812825984346 0.12917772606371306 -0.35152957571399446 -0.3522876027907991 -0.04644692024457647 0.1819272655037993 0.5984573709750426 0.016545980103591845
0.25233176226970067 0.9692624006237083 -0.45147311495980424 -0.192122732784803 -0.09422748768873768 -0.23526514464552653 -0.006963350632165512 0.026208335484085545
0.3909974962558246 0.1220071985617709 -0.23664907985237885 0.4148272880998927 -0.06751993141171982 -0.5210312993945564 0.08476413655653278 -0.07309099935248041
-0.02884713343120231 0.373745093482231 0.20375983579782148 -0.12924312628051574 -0.0676639916727846 -0.2852980093179061 -0.5227555516783553 -0.038702021107130585
0.14008077729499552 -0.2296773565182349 -0.32566789813334096 0.027695777304166933 0.39102155965097235 -0.16856642669701202 -0.05910055260261327 0.9921377273256923
0.17723149907317207 -0.31935334254530195 -0.3249097603872891 -0.09441465075415395 -0.5053601607424464 -0.1724781292405092 -0.2419707487258231 -0.4693364606253336
0.4457389783776743 0.11415735350091148 0.21893231740908814 0.2700898881753628 0.16300264599823097 -0.31869894278697025 -0.36114489219839857 -0.4621906225553074
0.19098756963654798 -0.36642560057908696 0.39190446597195505 0.329198577657271 -0.26696793147910547 0.013632439515535116 -0.6506694807365976 -0.06816852010926157
-0.4843476489009761 -0.039136286830713955 -0.015708580035193594 -0.36471623528844643 0.25810920259085457 0.6101579972722572 0.8457280542538748 0.6494229176914083
-0.6706045864456087 -0.4999139300283443 -0.7298102256536944 -0.43536913977922803 -0.08239858695606149 -0.4258552295314064 0.07318472200246828 0.41706608572912635
0.26749567301685023 0.4059088181809067 0.031099345427888878 0.6527916787067315 -0.218437173674388 0.13961995451588596 -0.09997085208754013 0.17099238287260096
-0.281615034056442 -0.6616969066706355 -0.7363223752863421 -0.22140201546105584 0.38601758921574325 -0.6066632596346013 1.039003694038194 0.7470245791916715
00000000: ebce 40cb 1cf2 a4bf 9b56 e1ec 4f4b b1bf
00000010: f6de 67b3 310a c73f 74c0 8214 baee cd3f
00000020: 8031 dc7b 87a8 cdbf da9c 3256 c0a6 b83f
00000030: 9f49 9ed2 98cf bfbf 7476 6f8a d089 d2bf
00000040: 47f2 6893 6c4d d5bf 6766 5439 d6f2 cb3f
00000050: ddd0 587e 7dc2 ca3f 5d38 6ff5 845f 83bf
00000060: 05e0 67f9 5076 bb3f 5434 47cf 73e5 853f
00000070: 6e19 57b2 a48a ad3f eb00 0f1a c509 cbbf
00000080: 97a2 5c96 6b6f cc3f 15df 09ed e95c d1bf
00000090: 443f 1698 4b19 953f f1ff 9599 96da a9bf
000000a0: ad76 a2ae d755 d1bf 22e3 b2ab 42b5 c6bf
000000b0: 5ab4 f72c 5338 f73f 396c a190 2a52 e33f
000000c0: f669 0670 0cf6 ce3f 2fcc a957 0c97 dc3f
000000d0: b834 1276 6a17 d0bf 341b eb8a cce4 bc3f
000000e0: e330 4d78 55bb d3bf 5159 b8d7 26af 573f
000000f0: 59a1 f1f8 eadd e6bf 4ab3 91e6 a80a d6bf
00000100: dc18 3f14 0013 c23f 3e29 d35c 42f7 cdbf
00000110: 4c30 4e91 1889 c13f 17cd e6b5 173f af3f
00000120: 3534 a0ce ea9c e93f a8d4 f238 9e54 d13f
00000130: 2dab 7cb6 1b0f d5bf 29e7 ff3b a924 d83f
00000140: 308f 5c85 f221 e1bf 97ea 52cc 4849 d3bf
00000150: 5ca6 d113 26b3 c83f c1a0 071b 98b7 c7bf
00000160: 3bbd 565a d416 c0bf 88f4 fb4a b469 d03f
00000170: 4774 77e7 f6c1 d93f f348 a659 6af9 9f3f
00000180: d089 14da 6207 dabf b779 56a3 d406 f93f
00000190: 4b96 59cb 6a4c c13f 8cc1 1c3c 0009 b1bf
000001a0: 86af 46e4 b47d c3bf d59b 8ac0 d890 c63f
000001b0: 742b 812d d379 e6bf 9ddf 8dfe 7c2c d8bf
000001c0: 308c cb76 b4d4 e3bf 2e06 0106 8e7f e3bf
000001d0: d9d1 8519 2ad5 e23f f12f e53d cade aabf
000001e0: 6524 6852 aabb e4bf 0314 7024 3db4 dbbf
000001f0: 2e17 72ec c34a 983f 4138 e247 bbf9 bdbf
00000200: 9ffd 5483 3703 b7bf b980 4863 a189 d93f
00000210: cdf0 e893 ad2c e33f f40a c74c 1779 da3f
00000220: b9e5 e861 24c1 cebf ede2 84cd 567c d43f
00000230: 7b3c 3dad b802 93bf eeff a8f4 9b20 c3bf
00000240: 5416 d64c f99d d03f 49bd aebe b550 d2bf
00000250: 39fe 5c86 a45f babf 50dc 6c79 c7de b33f
00000260: ce02 de28 94c2 c1bf c14e 5f65 4da4 d5bf
00000270: 0383 2939 1379 b53f 3426 7196 a07a a73f
00000280: 2e34 cf7e 9fac d33f fec0 5a74 d420 d4bf
00000290: 5e4f 318f 489f a9bf 9de5 1907 f048 cf3f
000002a0: 88ad 511b dac9 d3bf e24d 9600 0619 c0bf
000002b0: 09c4 4987 7031 c13f 0265 061c b17f 733f
000002c0: c48c 1b46 0eb6 d13f f2bb 9a98 4f8c c9bf
000002d0: d1e4 de27 0d4a d1bf 406a 1877 478b cb3f
000002e0: 8a93 bda6 ed57 d73f dffa 78c7 b2dc ce3f
000002f0: 1519 0e26 f7e8 b2bf 1003 e7df 9181 e1bf
00000300: cc1a 7d61 e788 e33f 2a0b ca21 2bea cb3f
00000310: d9c0 3f6f 2c37 ce3f 1e4e 2d26 02a5 fa3f
00000320: 44bf 8c17 7651 cf3f f488 9355 50c9 d7bf
00000330: 91dd 9677 d7d2 8e3f 8cf7 da16 46ac 823f
00000340: d1ac cbb9 3377 713f 2a30 56c1 9625 d73f
00000350: 9196 712c 7c2c c0bf e1c2 d32a 0883 c03f
00000360: 9e19 0a31 00e4 cabf d204 65ab e8f7 be3f
00000370: 6f67 0dc3 09f6 da3f 1a43 b25e ebbf cd3f
00000380: 6d03 a28f e00c d0bf a069 1e29 a146 aabf
00000390: 204b e812 5120 d03f 9356 56dc 8e6a d73f
000003a0: fd1b 47ae 47b2 d5bf 1374 dd3c 7148 b0bf
000003b0: e1ce 1044 3e51 d0bf 61c8 3936 a6b9 c33f
000003c0: fea3 cfc6 5d59 cdbf dcd5 905d 5e9c b53f
000003d0: a365 30b1 1824 d13f 8d5a f0ec 3172 d33f
000003e0: 995a e7a5 947e b4bf c1f1 dfa5 4d1f cf3f
000003f0: 071e 816f 7999 8e3f 854a bfa8 e75c d83f
00000400: d715 fedb 4990 af3f c643 611e 20a1 db3f
00000410: fcaa 448c e268 e6bf 14b4 d7b2 4b59 d3bf
00000420: e164 9f5f 3403 d13f 1ba9 9cdf cb3a d6bf
00000430: e66a 0150 7c30 bbbf 38c6 580b 11fe 9e3f
00000440: b1c2 ef76 c217 d43f 0da8 dd8a 0a82 cb3f
00000450: ae0f 3468 e407 b23f 7c4f 8c97 1c59 f03f
00000460: 2d31 8583 a8b6 e3bf c9b7 0102 e8b1 53bf
00000470: 8ab7 7a70 2497 c83f 9652 601b 9da5 c9bf
00000480: 5243 6816 c1c3 ca3f 63a2 9265 e829 b13f
00000490: a282 38a5 4691 d43f 650d 0c89 a07e a9bf
000004a0: b557 613b e085 d1bf c80d 2c92 9b2a dc3f
000004b0: d2a4 1ccf 67c8 c0bf 4ec0 4640 eac7 cdbf
000004c0: e9b1 9e0e 5984 d1bf 7588 b280 36de c5bf
000004d0: 77b1 a338 feae c13f fdcf c148 d27a 8dbf
000004e0: 9a3f 5167 78c7 c03f d568 3cc7 eebf a23f
000004f0: 1eb1 96bd 5c66 bdbf 301a 255e f2d8 7c3f
00000500: 6e72 3ccb 5216 bebf 915b 684e e588 c03f
00000510: d82c d1e7 757f d6bf 4174 314d e18b d6bf
00000520: b897 e606 e4c7 a7bf 9f75 cb83 6449 c73f
00000530: 116a 8c12 9026 e33f f865 b3ed 6df1 903f
00000540: b22f ac1e 3426 d03f 1a7b fd94 3204 ef3f
00000550: 8ea3 f17d efe4 dcbf 017f 104b 7a97 c8bf
00000560: 10e3 01ea 4a1f b8bf 5914 1213 2b1d cebf
00000570: b58e c533 9a85 7cbf 27a0 259f 5bd6 9a3f
00000580: 4225 cf5c 1a06 d93f d90a b31f dd3b bf3f
00000590: 4117 4c5d 844a cebf 7927 f8c0 878c da3f
000005a0: edd2 3d79 fc48 b1bf b3f1 e2d4 49ac e0bf
000005b0: ee4c 623a 1ab3 b53f ffd1 d97b 17b6 b2bf
000005c0: 6d73 ae5a 1a8a 9dbf 3bfc 628a 70eb d73f
000005d0: 72b7 7e63 cd14 ca3f 45c6 4dec 098b c0bf
000005e0: 11f7 5967 6d52 b1bf 8998 e894 5242 d2bf
000005f0: e659 c8d9 69ba e0bf cc71 e355 c0d0 a3bf
00000600: badf a3ba 2aee c13f 9a53 704f 1166 cdbf
00000610: 9cbe f52a bed7 d4bf 9ce7 0827 485c 9c3f
00000620: 75d6 ae4a 7f06 d93f fb01 efac 9593 c5bf
00000630: f11e 3579 6d42 aebf 4dbb 7f9e 97bf ef3f
00000640: e18f 2b92 85af c63f 416c 8600 4970 d4bf
00000650: 41ef c04e 52cb d4bf 349a 40fd 8e2b b8bf
00000660: 2fe2 6212 e92b e0bf ec7e 2e6a c313 c6bf
00000670: 87da 2ec2 e5f8 cebf 5f32 4dcb 9b09 debf
00000680: decf abc7 fc86 dc3f 2f63 e293 6a39 bd3f
00000690: 849e a763 f905 cc3f fb61 2c19 2749 d13f
000006a0: afa7 dc4c 45dd c43f 498c 2240 9065 d4bf
000006b0: 2703 4777 ff1c d7bf b025 19fa 8794 ddbf
000006c0: 1108 c4da 4772 c83f a9e0 b95c 8473 d7bf
000006d0: 8860 2078 f614 d93f 5c5f 3be9 9611 d53f
000006e0: 4e25 b2a9 0016 d1bf 6345 120f 53eb 8b3f
000006f0: 8e9b 88cd 48d2 e4bf 496a 7cfc 7d73 b1bf
00000700: cf25 fb47 8dff debf 87b1 0ce0 ab09 a4bf
00000710: 5f2e 12f6 e815 90bf 6695 b8c3 8257 d7bf
00000720: b228 fb75 dc84 d03f a3ab 7510 6a86 e33f
00000730: 3a90 ca47 3410 eb3f 6d3d 1892 12c8 e43f
00000740: 9a9b eabf 9775 e5bf 2e57 12ff 96fe dfbf
00000750: 0702 6ff9 9a5a e7bf 2386 4286 16dd dbbf
00000760: 5f80 36e4 1218 b5bf ecbf ea4a 3641 dbbf
00000770: 9844 91e3 3bbc b23f 938c 9ef3 35b1 da3f
00000780: cb72 db2b a61e d13f 27ae cffa 68fa d93f
00000790: acbe 28be 81d8 9f3f e9ae e45f abe3 e43f
000007a0: f1c1 94d2 bff5 cbbf ede2 4111 11df c13f
000007b0: cbec 4494 b097 b9bf 77c6 2612 14e3 c53f
000007c0: e765 5510 fb05 d2bf c878 c0fd 9e2c e5bf
000007d0: 425f 25f1 f38f e7bf 7f3c d6b7 e656 ccbf
000007e0: 3a31 571e 83b4 d83f 8217 7a11 c969 e3bf
000007f0: 6313 6556 c29f f03f ebf6 1d17 a0e7 e73f

rnn.bias_ih_l0 f8 [40]
0.14880162564621927 0.08697525988633986 0.06938618843531558 0.4060356968819123 0.1554019936229396 0.5720553376169318 0.22133021893337995 0.5381970015007422
0.1656429184802149 0.22224807844943473 -0.29178985914233413 0.20348732538591444 -0.03329160859185822 -0.09856237287714205 -0.06716445711775317 -0.18849948290601973
-0.10092213483422097 -0.26031812097166085 -0.11440044608756737 -0.1561234520703838 0.46351556228985186 -0.015194059834991903 -0.3625985281337214 0.13743952877314197
-0.3923937167095986 -0.6287080304790744 -0.3207584591848505 -0.9806302104051579 0.6028710231249905 -0.34992324213057246 0.22596124439161364 -0.13751408072680749
0.12495970250822483 0.2913506948088282 0.5131547793684323 0.253510628301171 0.534388090434533 0.27380235828282307 0.46145560330296803 0.5061974961257965
00000000: a9fe de81 ee0b c33f c4de c5b8 0244 b63f
00000010: a4af 1f12 4bc3 b13f d072 c725 7dfc d93f
00000020: 38ff 2b68 36e4 c33f 8b24 d2fe 464e e23f
00000030: c2ba f771 8c54 cc3f ca07 08eb e838 e13f
00000040: cadf d782 c933 c53f 5803 4502 a072 cc3f
00000050: 8687 945f afac d2bf f96c d767 df0b ca3f
00000060: 233b 4404 990b a1bf 8d9c 1f38 623b b9bf
00000070: 6d3b c69a b031 b1bf 4d77 3245 c020 c8bf
00000080: 0834 8e74 08d6 b9bf fe48 0856 0da9 d0bf
00000090: af0a 98fe 5849 bdbf 40f5 6370 dafb c3bf
000000a0: ab34 4e2d 3daa dd3f 4795 ad30 101e 8fbf
000000b0: 585f fa74 d034 d7bf d60f a154 9e97 c13f
000000c0: 811c 1b89 fa1c d9bf 7c7c b44d 601e e4bf
000000d0: 6d50 077d 4e87 d4bf b01c 659b 5261 efbf
000000e0: 82e4 002c b84a e33f 08e9 4374 2465 d6bf
000000f0: 26a8 694d 4cec cc3f b406 bbb7 0f9a c1bf
00000100: 1639 97eb 5bfd bf3f 17bb 7762 7da5 d23f
00000110: 6a8d 6592 c36b e03f f87b 6fa4 8439 d03f
00000120: 0339 790d b519 e13f 141d 9953 fa85 d13f
00000130: 2980 2f15 7d88 dd3f 1ead 6517 c532 e03f

rnn.bias_hh_l0 f8 [40]
0.16025734034882533 0.2729053033452805 0.16189763371920496 0.12516765275886882 0.3442373947109433 0.7830336369962837 0.06809904145435214 0.1837015580970192
0.09955659641104622 -0.2004448611896568 0.15216505566593785 -0.07643798373569527 -0.4572028373678327 -0.3524518739719627 -0.2588522273056086 0.3195351636050582
-0.23794423149793428 -0.2680306341800497 -0.09027075734779073 -0.2841837333470849 0.690583856129542 0.23211473084875395 -0.15448009779492317 0.30343504838140234
0.041201374394911554 -0.3984847715218001 -0.034113687489713586 -0.9669950816686615 0.2780644744699565 -0.12179440657168411 -0.10137938083488497 -0.2534240445730105
0.4070175540611864 0.5864013605450337 -0.06987663657089745 0.07545594166543737 0.5342203927664575 0.5155730113369441 0.39473239070321386 0.6034262690640468
00000000: a4fe de01 5083 c43f d677 31ce 4777 d13f
00000010: c4d7 0fc9 0fb9 c43f 0ae7 8e5f 7e05 c03f
00000020: eaff 1548 fc07 d63f a724 d28e 9c0e e93f
00000030: c475 ef53 f06e b13f da1e 205c 8883 c73f
00000040: 6abf af85 8a7c b93f a9fc ba5d 2da8 c9bf
00000050: c4f0 d600 257a c33f 5426 5190 7091 b3bf
00000060: 2387 88b0 cf42 ddbf 51e7 074e 928e d6bf
00000070: e78e b1ee 0891 d0bf 5ac4 669d 4373 d43f
00000080: ff19 47e2 f474 cebf f648 08f6 6927 d1bf
00000090: ad0a 98fe fb1b b7bf 80fa 31f8 1030 d2bf
000000a0: 3b1a a750 4319 e63f 9a26 f57c efb5 cd3f
000000b0: eebe f4fb 00c6 c3bf 0088 50d6 7a6b d33f
000000c0: 7f1d 27b7 5818 a53f 71f8 6845 c680 d9bf
000000d0: 7583 3a68 5977 a1bf ad1c 65ab 9ff1 eebf
000000e0: f4c8 01f0 cecb d13f f4a4 0f11 eb2d bfbf
000000f0: f9af 2cc5 fff3 b9bf 1883 dd7b 1938 d0bf
00000100: 27ce e55a 930c da3f cbdd 3bc9 ccc3 e23f
00000110: 5594 d36c 6fe3 b1bf 9aef bda1 1451 b33f
00000120: 0439 795d 5518 e13f a48e ccf8 927f e03f
00000130: 2c80 2fa5 4b43 d93f 14ad 659b 444f e33f

V.weight f8 [1, 10]
0.267889992575501 0.1663751449859751 -0.4886523165290194 -0.4432530813173728 -0.11214991381016608 -0.43554825583384754 0.3082161827556806 -0.2223186283560812
0.4104424055652988 0.6979074267665004
00000000: bd65 4211 1c25 d13f ae7f 4adf c74b c53f
00000010: 76d5 a65d 1446 dfbf 81ff 062c 425e dcbf
00000020: 935a 1054 dbb5 bcbf c5b7 a8ca 05e0 dbbf
00000030: 9f26 425e d0b9 d33f 795c 0ad3 ef74 ccbf
00000040: 87d9 3239 b044 da3f d21f b3f4 4155 e63f

V.bias f8 [1]
-0.07844069894192143
00000000: ea84 a18c b014 b4bf

best_model_score f8 []
0.003765393279934648
00000000: 1a02 ce1f 9ad8 6e3f

exp_avg f8 [40, 1]
2.2153312808852205e-05 1.2286262699310505e-05 -2.8500172970845548e-05 -1.8221008844092983e-05 -4.3331836628476043e-07 1.601598872139835e-05 -2.4203226449677893e-05 1.939220094938213e-05
3.7397271146039006e-05 1.3642449448189428e-06 9.306893523855664e-06 8.68746054584602e-06 -2.5454283429448697e-05 -1.4019341286982132e-05 3.7265791775698315e-06 9.3522040186601e-06
-1.3266524284318011e-05 1.0674115997422515e-05 3.390253219778928e-06 0.00011388221988244318 1.2760793982126007e-05 1.2859823583200781e-05 -0.0001557167759763649 -7.635423654613624e-05
-1.6514394846700186e-06 -2.3386820157424613e-05 8.082305302956458e-05 -1.5269667406842516e-06 6.262999501955103e-05 -6.127313816330458e-05 4.280761473683387e-05 1.9676080046377034e-05
-3.3426301193094894e-05 -4.108597581029188e-05 2.8676090306088657e-06 5.10555268060569e-05 -2.5497433134124446e-05 3.62410703003858e-05 1.6119933191627037e-05 6.037026729076469e-06
00000000: 05f8 6e10 bc3a f73e 19c8 6416 23c4 e93e
00000010: a47e 33f9 74e2 fdbe 5992 8031 2a1b f3be
00000020: a3b3 3b54 5a14 9dbe e1a8 455d 42cb f03e
00000030: dfee 930e 0161 f9be f987 e9e6 8d55 f43e
00000040: c2fc c673 609b 033f 0c0f 122e 63e3 b63e
00000050: c906 bcb4 9984 e33e d422 5a7c 0b38 e23e
00000060: 20d9 b709 d5b0 fabe a910 4898 9366 edbe
00000070: dac2 9b91 c442 cf3e 9b0f 0b22 ed9c e33e
00000080: 64b6 be36 69d2 ebbe c300 f954 9f62 e63e
00000090: d54d 0a6b 8370 cc3e 8bac d4a3 81da 1d3f
000000a0: 6eb5 9d2b e6c2 ea3e ebb4 f2b1 10f8 ea3e
000000b0: becf a6eb fc68 24bf a055 a6cb 0b04 14bf
000000c0: 9f8e 7cea e0b4 bbbe b95b 320b da85 f8be
000000d0: 25b9 647a f12f 153f cfa4 c5af 459e b9be
000000e0: 0711 161f 076b 103f 1505 867f f80f 10bf
000000f0: 5fb6 4871 8a71 063f c5f9 ccec c1a1 f43e
00000100: 4ecc aef6 6686 01bf 1eb1 2261 778a 05bf
00000110: 0b8e 8dbc 240e c83e 2a7b 158b 8ec4 0a3f
00000120: 3bbf 5943 6abc fabe a829 96b1 3100 033f
00000130: 7f0c bb5f 29e7 f03e 61fa 7d45 3552 d93e

exp_avg_sq f8 [40, 1]
2.767280553805188e-08 4.408531074028865e-09 1.2038419031216539e-08 5.3291944812866405e-08 6.847147467350892e-10 2.5422385320344048e-09 5.6124214138785523e-08 1.3040449085262337e-08
5.7758735690026814e-08 1.774108676551071e-08 1.0496953056208214e-08 2.8672890427793465e-09 3.007402627044017e-08 5.807726120002072e-08 4.988488078308652e-10 4.792466699782119e-08
5.490584820935124e-08 7.603662304470542e-09 4.684860736210435e-08 6.121899964514537e-07 4.488807270886724e-09 1.4263004319069486e-08 1.7390935745711956e-06 1.8317224744398848e-07
1.1676994784378037e-08 3.7205245051600508e-09 3.7405271699269794e-07 4.4153375246024576e-11 5.432579201004557e-08 8.687932290376209e-06 1.014189436055162e-07 1.1992417228354363e-08
1.794084757260842e-08 1.2885982590298236e-07 3.4521621308124485e-09 3.465279959666076e-07 4.07423066524973e-08 6.86650363363953e-08 7.745649586882735e-08 1.1077804387744062e-08
00000000: 6d7e d692 a4b6 5d3e 3b9b 6f2e 3bef 323e
00000010: 8676 b4db 30da 493e 6526 9a9d 639c 6c3e
00000020: e822 048a d086 073e 0186 2d10 71d6 253e
00000030: ed87 c33b a721 6e3e 7e09 210d 1001 4c3e
00000040: acde 0fd9 4c02 6f3e 8136 fcfe a10c 533e
00000050: e1ce face c28a 463e 2601 ab3b 3ca1 283e
00000060: 7b9a 02bb 5725 603e 7258 ccf7 132e 6f3e
00000070: ab3f 0ca7 eb23 013e fad1 dd50 b7ba 693e
00000080: 147b 12cb 337a 6d3e 87bd c455 2854 403e
00000090: 364e 51d5 d226 693e 40c2 fc09 ac8a a43e
000000a0: 0841 0aec 7e47 333e 5d0b 7e67 2ba1 4e3e
000000b0: 906b 669b 592d bd3e a2ab aa20 c095 883e
000000c0: 40bb e0ea 7e13 493e fe4d cd18 85f5 2f3e
000000d0: 0760 373f 2d1a 993e 45b2 93fe 0846 c83d
000000e0: 595c 4ee1 7a2a 6d3e e61d 6352 4c38 e23e
000000f0: 074f a1ec 7439 7b3e 914c 16ae e6c0 493e
00000100: cf55 c5e9 8a43 533e adb8 f503 974b 813e
00000110: 2019 c082 62a7 2d3e dd8d 603e 4e41 973e
00000120: c7e6 1d7a 94df 653e 37d7 0e18 a06e 723e
00000130: 97a9 ee15 c5ca 743e 6daa b35d 16ca 473e

exp_avg f8 [40, 10]
6.323700945756867e-06 3.3269009286287808e-06 1.8966023045661544e-06 1.0663080285465877e-05 -1.052345722145609e-05 -1.4471563224839879e-05 -8.380347322569927e-06 -1.404657294191657e-05
9.367905792087559e-06 2.6307669167588603e-05 7.916994201982756e-06 5.845071945195749e-06 -2.917823973367086e-06 9.013837747712455e-06 -4.7332650074899025e-06 -1.9975228627505936e-05
-6.48580127257238e-06 -1.3968712498508493e-05 1.4955034496640282e-05 6.413449672477798e-07 -1.0095763498598366e-05 -8.81906393515463e-06 3.0912757905659306e-08 -1.528498187079423e-05
6.840818283344599e-06 2.8565551103980032e-05 1.1249973457769756e-05 1.790294160911159e-05 -2.10436636478058e-05 -1.0524203054486743e-05 -6.00389221342321e-06 1.1589947874025652e-06
2.110303427002764e-06 -1.0953850147682088e-05 1.674121463177832e-05 1.0838862186199228e-05 8.569631435819295e-06 1.8581781381829293e-05 -5.4078564002778486e-06 -4.4720726848438735e-05
3.3443523151659948e-06 1.7874136031142846e-06 -3.0425261819900643e-06 2.7535603090571875e-06 -1.6311720458908397e-06 -7.905868577298635e-06 -1.7657019466794148e-06 -6.176983486509376e-06
6.043183352841235e-06 -2.2294054573740574e-06 1.102200323917521e-06 -3.9344697954014626e-07 -1.092117330459942e-06 1.76129287954547e-06 -2.8519302565013857e-06 -2.0361643251257977e-06
-1.2391516616098136e-06 -3.4971743868064772e-06 1.0919920612725796e-06 7.3283237934934314e-06 -4.578249222235195e-06 -1.880596154297729e-07 -1.3918354617073138e-06 -1.2081252361022016e-05
1.4345217899755577e-05 1.0581675990422043e-05 9.545159384748117e-06 1.4696054995930029e-05 -5.490512209833738e-06 -4.4766673960528626e-05 6.036497144223565e-06 3.2332343205110376e-06
-8.384174183674151e-07 9.34265046016788e-06 -7.859924092292459e-06 -1.4835565245932349e-05 -7.024822289244571e-06 -1.3046412559825429e-05 1.0250109150387303e-05 1.748311220049355e-05
6.9624728940348766e-06 5.310058215732303e-07 -9.891515444586795e-07 1.2896100705648397e-05 -1.723048580724125e-05 -1.3831907474304757e-05 -1.0130415663202398e-05 -1.9707077640982622e-05
7.584365090079606e-06 4.7882982518682976e-05 2.6754040269199585e-06 1.653598387191753e-06 4.0797289071938105e-06 7.224911362156333e-07 -1.9564153911820283e-07 -5.60691063398679e-07
-2.595119772072466e-06 -1.0307396708850817e-06 4.914369171286945e-07 -5.198857621744991e-06 3.7439554142983783e-06 2.6744128394373636e-06 2.5103012061772216e-06 6.992078213927866e-06
-5.935406205524163e-06 -9.024245713574426e-06 -5.597941599156159e-06 -7.765193719612767e-06 5.930041681498623e-06 1.5794125218779984e-05 6.968119738906401e-06 6.161104244319711e-06
-9.92442710587326e-07 8.425140628192747e-06 -2.8475272653166005e-06 -1.819157480227862e-05 -6.253302536898861e-06 -1.1074956285586194e-05 1.3893269324473585e-05 -2.774498085770976e-06
-6.881654132944108e-06 -1.1047228770943639e-05 -9.585073749682948e-06 -1.5849498437776306e-05 3.193418568483817e-06 2.3448828640640984e-05 1.2612218387360193e-05 8.700909257893206e-06
-1.759304114411178e-05 -1.1203289062307552e-05 -4.736239425892486e-06 -3.723159365436136e-06 -8.70672826295215e-06 -1.3197853118150372e-05 1.2216911173018712e-05 1.1219700778994723e-05
1.1526464636156875e-05 1.1106849598170325e-05 -6.243941413904752e-06 -4.0267753342012055e-05 1.989195531623027e-06 1.2550411796327489e-06 -1.2770492437996787e-06 1.9093842240635248e-06
-1.3341098636488158e-06 -4.689904069942801e-06 -1.3133895459026734e-06 -3.6765321276512176e-06 3.491435267592217e-06 2.385112030419398e-07 -7.848478490584457e-07 -2.1881290951721036e-06
6.621579868209757e-06 5.149285727326501e-06 -9.978396764178573e-06 3.713267724343052e-06 -4.984200401793789e-06 -3.1138114071022133e-06 -5.091066693807299e-06 4.065246371502838e-05
-2.0981460937006996e-06 -1.951720772761746e-06 -6.940845233601878e-06 -9.877493686459298e-06 8.763090402094118e-06 6.410206677732148e-06 8.493196903308616e-06 6.388962995269831e-06
-3.1361974115960645e-06 -3.431135529287613e-05 4.648612660382239e-06 2.854056891968306e-06 -3.6115970352937137e-07 7.344298141747623e-06 -5.648388467097686e-06 -1.1833491376407078e-05
-5.498988419878543e-06 -9.74844083225987e-06 8.276507749098126e-06 1.2541145013140534e-05 -3.10919744249882e-07 -2.03536911712838e-06 6.0746767164777396e-06 4.5660376757908725e-06
-1.0235823533575704e-05 3.789427712413422e-06 -4.775984667554247e-06 -3.7726716332062943e-06 -5.19305461100202e-06 3.910733383549624e-05 4.493650705570656e-05 3.596788720247245e-05
-1.877043240606943e-05 6.278192057868515e-05 -2.1110563698560133e-05 -0.00013071023698765725 -4.362733587962132e-05 -8.08103430245488e-05 9.964466201250394e-05 1.6057245904410508e-05
2.168063306219829e-06 1.0564997293793131e-06 5.575530019449179e-07 3.624622616802931e-06 -3.7063940391968376e-06 -4.858223598000839e-06 -2.8649546927736537e-06 -4.880661282643411e-06
3.1083414019161408e-06 9.295791625303646e-06 1.9848522980073158e-05 1.3037389429368123e-05 -1.304869795637236e-05 2.0736810397232816e-05 -1.0270712969501497e-05 -5.0724967610437085e-05
-1.4048799008710093e-05 -3.611939841442271e-05 3.8507849778477324e-05 -5.917490184007587e-06 -3.0486810110592913e-05 -5.225392521699302e-06 -3.148467448390817e-05 -7.482335592951065e-05
9.733571661947515e-05 5.464790647387138e-05 6.513281870352593e-05 8.894532092527504e-05 -2.2817096619609603e-05 -0.00030157581831594327 -4.016302778448668e-06 6.03030934622833e-06
3.8153717012899865e-06 -6.6519874955603285e-06 1.9570951355588286e-05 1.2066976357455339e-06 5.832878068547616e-06 1.7555761638759406e-05 2.687234388155051e-06 -5.3256856845302765e-05
-2.134935132303304e-05 -1.4472727937443316e-05 1.5895948737945667e-05 -2.0928102934226044e-05 8.1704090156272e-06 5.4905963737371045e-05 1.3724862414263725e-05 3.7688922730615e-05
-4.244573666283399e-05 1.660807004230101e-05 -5.259832833003164e-07 1.064146165089489e-07 8.67616809938601e-07 -5.040638677830744e-07 8.018692070220843e-07 1.046563156051255e-06
00000000: fea6 1bae 0586 da3e e2c4 b320 77e8 cb3e
00000010: 96d3 8149 d8d1 bf3e da7d 6098 b25c e63e
00000020: e465 8af2 bc11 e6be 04b7 3581 5c59 eebe
00000030: 9052 6e2a 2a93 e1be 8e18 f648 3275 edbe
00000040: 92f9 142b 5ba5 e33e 6923 6442 e995 fb3e
00000050: 49e3 d365 679a e03e 6959 6924 1984 d83e
00000060: 7a82 79b1 fa79 c8be 468d 436d 44e7 e23e
00000070: cae8 6ffa 4dda d3be e879 4b42 0ff2 f4be
00000080: 9b6c 897a 1334 dbbe c341 263a 654b edbe
00000090: a1c3 544a ec5c ef3e db6a 707f 1c85 a53e
000000a0: d49d 742b 1f2c e5be ea3c f8ea b27e e2be
000000b0: a547 f8f9 9d98 603e 76ac c1f4 0707 f0be
000000c0: bc1e bfcf 45b1 dc3e 7084 7bb9 01f4 fd3e
000000d0: 00ae 2094 c897 e73e 76a1 87c7 c8c5 f23e
000000e0: acc4 f28d dd10 f6be a91d 3574 2312 e6be
000000f0: e194 3c53 a12e d9be 88ba ca3e d871 b33e
00000100: 19e8 fb93 d7b3 c13e 22bf 66b3 cdf8 e6be
00000110: 0668 6982 ef8d f13e 25c6 2de0 11bb e63e
00000120: d51d 1a2d c9f8 e13e 2016 1b4b 027c f33e
00000130: 6ba8 943f a4ae d6be e72e 6179 5072 07bf
00000140: 9104 0321 f10d cc3e 4414 4f0a e2fc bd3e
00000150: afcd 1b75 c685 c9be 427f eec9 3919 c73e
00000160: 88d1 a0a1 d45d bbbe 4586 b54d 6e94 e0be
00000170: eacd 51d2 a19f bdbe 2678 c04a 7ce8 d9be
00000180: 11f3 5f97 d158 d93e 50b3 989c 9cb3 c2be
00000190: 4752 8112 ea7d b23e 779c 9c1d 5e67 9abe
000001a0: 6e11 28b4 9b52 b2be 3b2e 4000 b28c bd3e
000001b0: f3ba 433d 79ec c7be 8f36 ff2c a114 c1be
000001c0: 2cb4 17a9 1dca b4be 9c2b 8af3 1f56 cdbe
000001d0: d6d1 03f8 1152 b23e 6a82 464e babc de3e
000001e0: 1d12 4d90 db33 d3be 168a fcde ad3d 89be
000001f0: 304c 2b46 e359 b7be 0d89 5eae 1256 e9be
00000200: 8cc6 47bc 8715 ee3e 0fd7 5e79 fe30 e63e
00000210: eeaf 70b7 8404 e43e 3df9 366b e2d1 ee3e
00000220: 1c1f 1981 6407 d7be 69a0 7334 7b78 07bf
00000230: ac64 45b3 a351 d93e a870 885d 511f cb3e
00000240: f417 9e66 f321 acbe 3521 161a cc97 e33e
00000250: db6a dabd c37b e0be bed2 c28f c81c efbe
00000260: 44be 9072 d876 ddbe 33e7 ed49 3d5c ebbe
00000270: e161 4c46 fc7e e53e 596b 7752 1655 f23e
00000280: 509c ecf9 e533 dd3e 8466 8526 4ed1 a13e
00000290: cc97 f09f 5f98 b0be 24fb b895 8a0b eb3e
000002a0: 81e7 f4f7 4511 f2be 4434 46e3 f201 edbe
000002b0: 28d0 1bba b93e e5be a37d 4010 14aa f4be
000002c0: e518 c666 a6cf df3e aa43 6ac0 be1a 093f
000002d0: 359e 15eb 6271 c63e 2409 86a7 26be bb3e
000002e0: bed7 c857 931c d13e d4da 7acf 263e a83e
000002f0: fde0 552d 3142 8abe fa26 06b0 4cd0 a2be
00000300: 1fe6 b32e fac4 c5be b76c db40 fe4a b1be
00000310: ad6b 9b35 697d a03e 092c 001a 3bce d5be
00000320: b3ce 8541 1568 cf3e f6ff d801 426f c63e
00000330: cdd1 c5ae d40e c53e e229 1bd3 af53 dd3e
00000340: f0f6 dd08 18e5 d8be 3ce8 01e3 daec e2be
00000350: 8301 5078 be7a d7be 2e37 2c19 e848 e0be
00000360: d65a 0c72 55df d83e c4f0 4105 b48f f03e
00000370: 8d72 4e2b f639 dd3e d9a2 6b70 6fd7 d93e
00000380: 0067 d94c 82a6 b0be 8458 c382 36ab e13e
00000390: af0e 58ab 04e3 c7be 12d3 5c80 4313 f3be
000003a0: fe0c 7cb6 6e3a dabe 2fd2 d166 d239 e7be
000003b0: 7a50 7165 e422 ed3e 20bf 0974 3046 c7be
000003c0: 6447 33af 1edd dcbe c798 a08f ef2a e7be
000003d0: 1dc8 4e81 f219 e4be ee60 3a3d 919e f0be
000003e0: 727e 986c d0c9 ca3e ee43 f83b 7f96 f83e
000003f0: e942 9b18 2273 ea3e c243 d7dc 433f e23e
00000400: 85ef e494 9872 f2be 1caa fc52 b87e e7be
00000410: f058 8694 7fdd d3be a18d d681 6c3b cfbe
00000420: 814b e19e 6342 e2be 30fc e11e 8bad ebbe
00000430: ded9 7c7c e79e e93e 6bfa eeee 8787 e73e
00000440: 3297 a03c 392c e83e f828 ffc8 f14a e73e
00000450: 48f0 038c 6130 dabe f710 3178 a51c 05bf
00000460: 4ce0 f7ce c3af c03e dbdb ce5e 5c0e b53e
00000470: fd28 287e e26c b5be 2bff ff13 5f04 c03e
00000480: 40cd cc4e f561 b6be eb30 b703 bfab d3be
00000490: 3850 d813 f708 b6be 6fd8 80e9 4ad7 cebe
000004a0: a0ee 50d6 cc49 cd3e f42c 495d 9701 903e
000004b0: 25fd 11ac ca55 aabe b93e 0db1 f85a c2be
000004c0: 344b cc03 dec5 db3e 543f 0be2 0099 d53e
000004d0: b5d1 9968 1ced e4be 136d 1d85 2e26 cf3e
000004e0: 9608 0193 bee7 d4be fad1 a5ec db1e cabe
000004f0: 7898 c4c1 7d5a d5be e358 6b04 4850 053f
00000500: 1d13 6e03 bc99 c1be 4887 87d7 495f c0be
00000510: 28be 9e02 ad1c ddbe 9262 2b65 f0b6 e4be
00000520: 57f8 5af9 a560 e23e 39cf d431 e8e2 da3e
00000530: 91d9 1118 c0cf e13e d81f 93c6 18cc da3e
00000540: 78cb b1c2 ee4e cabe 6dc9 df30 31fd 01bf
00000550: 5159 14eb 687f d33e 204d 995e 0af1 c73e
00000560: 851c 8f2c ad3c 98be c2e3 194d e1cd de3e
00000570: e8a8 0e33 e9b0 d7be cb8e b2ab 0ed1 e8be
00000580: feb7 5a6d 7e10 d7be bf37 8781 a771 e4be
00000590: e188 3d90 6a5b e13e 48f5 8fd8 f94c ea3e
000005a0: 3323 167f 8fdd 94be b1af 6b01 ec12 c1be
000005b0: c9e6 d26b a27a d93e 7401 1de1 be26 d33e
000005c0: 8c48 d7df 5077 e5be 8594 8cea bbc9 cf3e
000005d0: 7f7f 44ab 2c08 d4be 2cfe 0b2a c0a5 cfbe
000005e0: e517 6cfb ffc7 d5be 4a7f 44c2 e580 043f
000005f0: b4b4 27a0 468f 073f f22d a531 87db 023f
00000600: b08e 054b a6ae f3be 50f1 c22e 3975 103f
00000610: a26a 16e4 d222 f6be ebe3 df62 e821 21bf
00000620: a550 b5d8 8fdf 06bf 8e42 331f 172f 15bf
00000630: 313e 1d42 0a1f 1a3f 18b3 4f89 55d6 f03e
00000640: e20e 5068 e12f c23e 97cb b8bc a1b9 b13e
00000650: c58c 7904 58b5 a23e 8a23 535b d167 ce3e
00000660: 5685 eeab 6b17 cfbe 788e 8655 7a60 d4be
00000670: 6278 b67f 7108 c8be 8056 37f5 9178 d4be
00000680: 4e47 dbc1 1c13 ca3e 9da9 67df a37e e33e
00000690: 86e9 f81c 0cd0 f43e fff8 bf28 6557 eb3e
000006a0: 39fa 2b64 775d ebbe 91d4 79c2 7ebe f53e
000006b0: 728d bc0a 0c8a e5be 5a5f a69d 3098 0abf
000006c0: 7142 b93b 6476 edbe 3205 5c14 ddef 02bf
000006d0: 4298 bca4 6f30 043f 1aa9 ee50 dbd1 d8be
000006e0: 04c8 5da3 bdf7 ffbe b45b 96f5 b8ea d5be
000006f0: 1bce 882d cd81 00bf 44b0 7e77 4f9d 13bf
00000700: be53 e2e0 1684 193f 0627 d0c4 b7a6 0c3f
00000710: 86b2 0e4e fd12 113f beda 5ffa 0451 173f
00000720: 1bc0 b9f0 eaec f7be 27fa e446 9ac3 33bf
00000730: cbb6 c1e6 78d8 d0be 3169 b2cf fe4a d93e
00000740: 8cd6 3063 b900 d03e 621d 5966 84e6 dbbe
00000750: 4250 5089 8985 f43e 4114 eb14 ba3e b43e
00000760: ca08 a050 0177 d83e a985 e6c0 9668 f23e
00000770: da37 69ba ca8a c63e f6b6 e1aa 03ec 0bbf
00000780: 6e03 6740 ec62 f6be 6535 e494 fc59 eebe
00000790: a1e9 8c47 09ab f03e dc26 6048 d8f1 f5be
000007a0: 857c ec76 7422 e13e 6705 828c 5ac9 0c3f
000007b0: cb2d 0dba 7ac8 ec3e eccb 3e86 85c2 033f
000007c0: 491a 1568 f840 06bf 95d9 05e2 316a f13e
000007d0: cf94 d578 29a6 a1be 72a8 41bb c190 7c3e
000007e0: 5913 be8a c51c ad3e 16cd e32a e0e9 a0be
000007f0: 9f39 be08 01e8 aa3e 41cb f95b f48e b13e

exp_avg_sq f8 [40, 10]
7.209997981955524e-09 5.3906764365720276e-09 3.265034106513242e-09 1.5112552800902624e-08 3.1175718882858667e-09 5.670311291880577e-08 8.136764033222357e-09 2.224693045669439e-08
3.416517293314119e-08 2.1028762784760534e-08 4.4191024853695294e-10 4.394171052998132e-10 4.134501012689637e-10 1.9713399056384563e-09 6.344340872193673e-10 4.118747887941958e-09
1.1611216423155874e-09 1.7228204542792816e-09 2.2464718988943836e-09 4.407041102848454e-09 3.0665650996681903e-09 2.3082016281663767e-09 1.5712237921372205e-09 5.8470169124315425e-09
1.205858031891825e-09 2.4178123391730013e-08 3.099735693453666e-09 9.115916125109973e-09 1.4868715683338517e-08 1.1054960997093537e-08 1.4639258057374462e-08 1.075529059163718e-08
6.725170808925488e-09 3.0262814985333864e-08 6.75634834471754e-09 1.1492800242925857e-07 1.627214608631301e-08 4.585423807407431e-08 6.947854481608314e-08 4.406040193348725e-08
8.263399801079185e-11 5.749044836452916e-11 6.318733192919509e-11 2.2202279852185375e-10 6.027411740628432e-11 6.918644763733353e-10 1.1678824158086934e-10 3.0837781144121755e-10
4.1503505838123713e-10 4.0309622457159217e-10 2.874097073223635e-10 2.0211295289088578e-10 1.5573462771068999e-10 6.521123833935043e-10 1.785345324668317e-10 2.2160672661134437e-09
3.5954984904863147e-10 9.62529107952221e-10 1.311610691385373e-09 1.056835582169002e-09 9.713940210759242e-09 8.673985548856393e-09 6.95887403707211e-09 3.243686828208115e-08
1.0177511093565651e-08 8.094434189595178e-08 1.9172805365695404e-08 3.407625391347353e-08 4.550165297960241e-08 6.255728660561534e-08 2.8751518193084127e-09 2.3306955350170865e-09
1.7036741134899115e-09 7.428731797018198e-09 1.910575916649205e-09 2.3063591046628558e-08 4.216104820842075e-09 9.276582321566675e-09 1.3504569191995781e-08 1.240721953579588e-08
1.2492488960518357e-08 9.965605728333639e-09 7.514473168008115e-09 3.231723644644745e-08 8.583089589128837e-09 1.0006224180894788e-07 1.8308159998273455e-08 4.088980829591915e-08
5.865436334911242e-08 5.456714820154202e-08 1.007412363505313e-08 6.598821335290198e-09 2.815370726955398e-09 1.2288895363784438e-08 7.560933861953261e-10 7.5567072259045e-08
5.583760304806667e-09 2.804048885300249e-08 4.818994708637849e-08 1.3604625231458843e-08 2.8431001101559505e-09 2.1754886923296074e-09 1.297921987079896e-09 6.104422096532201e-09
1.27930911896868e-09 2.2361722094272483e-08 3.329993471534708e-09 8.708619670581752e-09 1.345906083668001e-08 8.780333663733287e-09 3.4002788577644316e-10 3.364955428240733e-10
2.8951345187565854e-10 1.3412696087755644e-09 3.940804546216669e-10 3.1044939658420455e-09 7.900356267606862e-10 1.2185395301906298e-09 1.7431203251599587e-09 3.0288770743139623e-09
3.8512426208731645e-09 4.1509430246981435e-09 5.1632359416007894e-09 1.7319821404749252e-08 5.745714429239731e-09 3.407562089647241e-08 1.068217020454156e-08 1.4268789703716398e-08
1.8232639733017858e-08 3.96966209152829e-08 8.661686652756148e-09 8.782741852188137e-09 8.146659970648231e-09 3.465505077357424e-08 1.1064571444404753e-08 7.439510766982132e-08
2.1111482358033926e-08 3.08619225971293e-08 4.0516771789897076e-08 6.954508066409254e-08 4.564437304359251e-11 4.313277537266912e-11 5.6085012233304204e-11 2.2818128304251474e-10
7.183537342233912e-11 4.456975832206146e-10 1.314126420423324e-10 1.9549385323292874e-10 2.453496304634201e-10 4.704314373194101e-10 1.0272380829381771e-08 8.5906701849138e-09
6.139104477916121e-09 2.8079502180093922e-08 7.52491060003448e-09 8.351044015776601e-08 1.6107203381874867e-08 3.3508597943270336e-08 4.871185304859609e-08 4.9307882830327243e-08
7.308106427798123e-09 7.983654607830396e-09 7.680855354631113e-09 3.3294465649989796e-08 1.1227065418801625e-08 6.40269342706857e-08 2.0652807298936503e-08 2.7103932776867627e-08
3.3832665178756104e-08 7.021483315631014e-08 1.601488780891198e-09 1.369649705921681e-09 1.0748929985765503e-09 4.664539363890392e-09 1.31926707975536e-09 1.3050638682624574e-08
2.710556608060152e-09 5.334622025702135e-09 7.54140757653619e-09 8.265341319224885e-09 1.2799702038390557e-08 9.940375512550944e-09 6.3055529168143056e-09 2.841148098975192e-08
6.445621959830231e-09 1.0247598879555089e-07 1.5560272384099983e-08 4.004860981312565e-08 6.19093016288854e-08 4.385061641062671e-08 9.358757804828077e-08 1.0259415053616778e-07
8.461204355119753e-08 4.222512789399612e-07 1.4670811452670265e-07 8.143685700043028e-07 2.623829250414735e-07 3.498020377920371e-07 4.268813283722559e-07 8.794823460782086e-07
8.287212679246348e-10 6.444699283962099e-10 4.413220108303314e-10 1.9613238872938846e-09 4.624451946559654e-10 6.620283771996709e-09 1.0874037787025677e-09 2.6558039216773287e-09
3.946848825896933e-09 2.962728757902225e-09 1.5797736510846966e-09 1.1824664644004361e-09 1.151050534118805e-09 4.342417322188065e-09 1.3074569812381977e-09 1.2864472421126658e-08
2.387544266961793e-09 5.6039228694603325e-09 7.527522804097922e-09 9.536902958499212e-09 2.797193349529228e-07 2.519970070908457e-07 2.202634539234245e-07 9.328374074320557e-07
2.7450468183665337e-07 2.340052873955016e-06 5.495185724149421e-07 9.639940804278875e-07 1.316458877340523e-06 1.7255605094047429e-06 1.4466829588753052e-08 1.0294828795864667e-08
7.388467782163835e-09 2.9861902759297296e-08 6.944597462391054e-09 1.149688445222508e-07 1.5790898168247405e-08 4.710635046806188e-08 6.952299507105703e-08 4.329640505000935e-08
1.8688307805698003e-09 1.2046556819301532e-09 1.0714517533156052e-09 3.629700003086294e-09 7.856254782135628e-10 1.4292039293763863e-08 1.8465943222761297e-09 6.056550330452796e-09
8.794073857609202e-09 6.22790517000192e-09 1.1813440891405301e-11 5.330505028029151e-12 7.61576209348584e-12 1.5453346095698662e-11 5.492758671937367e-12 8.170212599361908e-11
00000000: 8c18 9903 7af7 3e3e eb9e 4186 1c27 373e
00000010: bf90 55cc e20b 2c3e 15ab a65c 1b3a 503e
00000020: 9d33 05f3 9cc7 2a3e a57b 6c6c 3771 6e3e
00000030: 3f82 bebb 3b79 413e 5e10 dc8e 30e3 573e
00000040: e575 2e28 a057 623e 6c4e f7a0 5794 563e
00000050: 05f8 a4d4 2a5e fe3d 0837 31b6 4e32 fe3d
00000060: d6b9 d5b8 7d69 fc3d e934 43b5 05ef 203e
00000070: e695 348f 8acc 053e 3eff 4077 9cb0 313e
00000080: bff6 b8bf aaf2 133e f12a 9463 0b99 1d3e
00000090: ba5e 3740 0b4c 233e 6b90 b2ca 97ed 323e
000000a0: c0e5 15ae 7257 2a3e 159c c2ff c9d3 233e
000000b0: 9c50 a0b8 50fe 1a3e ad46 02f3 dc1c 393e
000000c0: 7124 1e72 6bb7 143e 1774 fd2d 08f6 593e
000000d0: 9490 7210 64a0 2a3e 22a7 b623 8793 433e
000000e0: 06a6 49b3 29ee 4f3e db1c d171 87bd 473e
000000f0: 47b0 0e69 0470 4f3e 5427 9b95 c818 473e
00000100: 103b fc4b 67e2 3c3e 3c0f 9524 4a3f 603e
00000110: ebd5 33fe ae04 3d3e 3d33 eacc cad9 7e3e
00000120: c20e 347c da78 513e b6ec 0193 289e 683e
00000130: b940 8b7c 87a6 723e 237a 7593 9da7 673e
00000140: 8beb 45c5 d9b6 d63d 77e6 d4b1 0f9b cf3d
00000150: f318 33c7 695e d13d b790 db95 bb83 ee3d
00000160: 2aff 83f8 6991 d03d c5cc 8a4c b4c5 073e
00000170: f958 68f6 1e0d e03d 38ab 5a32 0a31 f53d
00000180: 6936 f9bb 5f85 fc3d eb02 bc01 58b3 fb3d
00000190: 1068 3440 2ac0 f33d 61b7 7ea3 37c7 eb3d
000001a0: a164 99d2 6c67 e53d cc0d 1e8b 0a68 063e
000001b0: 6485 971b a089 e83d 633d d8f6 2e09 233e
000001c0: 9041 f290 44b5 f83d f38f d76e 3f89 103e
000001d0: 124f f15a 8688 163e b20b 6115 0328 123e
000001e0: 9298 1b8c 4bdc 443e 8c67 aff0 92a0 423e
000001f0: 1c0d 53e8 5ce3 3d3e b005 d1d7 166a 613e
00000200: 362c 5959 25db 453e 7e17 00ec 73ba 753e
00000210: d101 673c 2e96 543e df92 da98 674b 623e
00000220: 05af ce16 b36d 683e c177 a56c e7ca 703e
00000230: 76af 2f95 86b2 283e 4065 60f1 4005 243e
00000240: a835 9286 d644 1d3e bad2 0b1c fae7 3f3e
00000250: 4fa4 8f9f 6669 203e c976 2cf0 abc3 583e
00000260: bf01 9a01 a81b 323e c651 7ee5 daeb 433e
00000270: 7139 3f26 3700 4d3e f993 39ea f0a4 4a3e
00000280: 7929 0585 d1d3 4a3e 4208 f551 a666 453e
00000290: 6780 7914 2023 403e 9825 09ac a559 613e
000002a0: b530 9a78 9a6e 423e d3b4 ec92 39dc 7a3e
000002b0: 562b 2f3a 82a8 533e b83b cf3a daf3 653e
000002c0: 486e d8f1 647d 6f3e d640 9dd8 a64b 6d3e
000002d0: e85d 97db 4ea2 453e 8c3b e814 7b57 3c3e
000002e0: 0a85 d1d1 102f 283e e729 a644 e463 4a3e
000002f0: c8c1 37f2 aafa 093e eba1 77fe ed48 743e
00000300: 00b5 3fcd 68fb 373e b742 99fc b51b 5e3e
00000310: f080 7b07 2ddf 693e f7b9 fbc8 3837 4d3e
00000320: eaf6 1713 0b6c 283e 814e 0d42 f3af 223e
00000330: ae36 8d3e 524c 163e 84a0 4411 e237 3a3e
00000340: c21c 9304 76fa 153e 7f1d 2a4d be02 583e
00000350: 7a0c 71ab bb9a 2c3e 473f 6d42 9db3 423e
00000360: 955c f36a 32e7 4c3e 0e55 541b 0adb 423e
00000370: 417b ad75 d55d f73d e6b6 8633 b11f f73d
00000380: 1058 8aac 2ce5 f33d a1b5 db53 f70a 173e
00000390: 45b6 ad96 bc14 fb3d 1387 c4bb daaa 2a3e
000003a0: 9fbc bf13 3a25 0b3e d17f 248b 31ef 143e
000003b0: e8a0 ff02 53f2 1d3e 0e31 3935 9204 2a3e
000003c0: 7b02 516d 7c8a 303e 0f28 5997 02d4 313e
000003d0: 76e3 66b7 092d 363e 08f1 e514 d698 523e
000003e0: 33ce ccd5 7aad 383e 3abf 2453 514b 623e
000003f0: ec7d 05ce 95f0 463e e804 f19f 59a4 4e3e
00000400: 39c8 07f6 bf93 533e 43e9 52ae dc4f 653e
00000410: 8007 4106 d099 423e dd62 7607 5ddc 423e
00000420: 820a 7776 ac7e 413e 1831 8033 f49a 623e
00000430: cb1a acfe cfc2 473e 2b14 2e93 64f8 733e
00000440: 4fd2 5280 14ab 563e 177c 375e a191 603e
00000450: 0aa4 ab2c 95c0 653e 0740 5dff 19ab 723e
00000460: 7b54 f8d9 df17 c93d db84 3e02 66b6 c73d
00000470: e5f1 8485 43d5 ce3d 3a45 5648 6a5c ef3d
00000480: 1185 3d0b f7be d33d 8e10 3f78 cba0 fe3d
00000490: d2c1 f9d9 ab0f e23d 0d47 d216 54de ea3d
000004a0: 89ce 1b81 3cdc f03d ffaa 436c f529 003e
000004b0: 95a4 cd13 4d0f 463e 4160 5958 c572 423e
000004c0: 0be2 394a 045e 3a3e 2b57 384e 6f26 5e3e
000004d0: ab30 9804 dd28 403e 5712 2d33 cb6a 763e
000004e0: 9e28 98ac 834b 513e d20a 6cfa 62fd 613e
000004f0: 37f3 79f6 e726 6a3e 2170 7be5 d278 6a3e
00000500: 1206 2916 5963 3f3e 08c5 557f 0f25 413e
00000510: e807 814a 987e 403e d188 30de f4df 613e
00000520: d3b6 17fd 241c 483e 00b9 52bd e52f 713e
00000530: d4c7 051d 002d 563e eb79 37b6 451a 5d3e
00000540: 9980 9514 ed29 623e b44a 7068 20d9 723e
00000550: 7311 b811 6c83 1b3e 4013 ef79 c887 173e
00000560: 9a74 4ded 6d77 123e 156e db1b b708 343e
00000570: 1c78 a4ae 32aa 163e 2d6a 101c aa06 4c3e
00000580: 3160 5cb7 9348 273e ef19 469c 7ae9 363e
00000590: daf2 cfc2 ee31 403e 96cc ae60 ebbf 413e
000005a0: ecf6 a4ea b57c 4b3e 604c a27b c758 453e
000005b0: ceb4 435c 0715 3b3e 2441 cb3c b081 5e3e
000005c0: d6de 804a 09af 3b3e ad3d f4a8 1882 7b3e
000005d0: faac a4d3 2cb5 503e 9e52 7630 3d80 653e
000005e0: 3922 bff3 5f9e 703e a627 7467 c88a 673e
000005f0: 41ef 9f15 4a1f 793e 1905 2062 378a 7b3e
00000600: 1fe8 cecf 7eb6 763e 0868 9fc3 3856 9c3e
00000610: 6f14 f538 dab0 833e 643c 8d6c 5f53 ab3e
00000620: 847d dc4e b49b 913e 246f c3a1 8d79 973e
00000630: b1e0 d8ef c3a5 9c3e bc74 c221 b282 ad3e
00000640: 3fc4 8e65 8279 0c3e 4b9d c243 d124 063e
00000650: aa1c bea4 d153 fe3d 7c20 e530 ffd8 203e
00000660: 5bf7 9e01 6cc7 ff3d 165b 7538 146f 3c3e
00000670: 3a0b 2ad0 73ae 123e 8e45 aab1 2cd0 263e
00000680: 17f1 6c2e 9bf3 303e f7ae 2904 1c73 293e
00000690: e8cb af01 eb23 1b3e f827 d2e1 8a50 143e
000006a0: 642f 6bb0 5fc6 133e 7aa5 8bd0 89a6 323e
000006b0: c424 81b1 4176 163e b9e8 9d89 51a0 4b3e
000006c0: e597 12ef 4382 243e 29be 250f 9411 383e
000006d0: 7a1a 2aa7 4c2a 403e 859e e1c4 f77a 443e
000006e0: 3963 2aa5 8ac5 923e 68e6 ce8e 46e9 903e
000006f0: d2a5 81d4 3190 8d3e b643 1027 034d af3e
00000700: 3f2f b55b f46b 923e 595e 19ac 39a1 c33e
00000710: 55c1 be1e 5470 a23e 3970 56b3 522c b03e
00000720: 9f07 d7d7 2516 b63e 2d91 32d8 39f3 bc3e
00000730: 22d9 c242 3911 4f3e 49fc 0759 a41b 463e
00000740: b86c 02cc b4bb 3f3e 4458 474c 3008 603e
00000750: 1ba9 b368 aad3 3d3e 0981 594d 99dc 7e3e
00000760: ceea 6cac 91f4 503e c859 d45c 3f4a 693e
00000770: f418 b276 95a9 723e 06a6 4cd3 9c3e 673e
00000780: e27b 6c33 9a0d 203e ba05 56b8 21b2 143e
00000790: 1ef6 e26d 4b68 123e 208d 9a72 cb2d 2f3e
000007a0: 5321 334e 6ffe 0a3e 36bb b3b6 21b1 4e3e
000007b0: bbf8 1b60 68b9 1f3e 5c67 fb5c 3f03 3a3e
000007c0: ee4e fcdd 97e2 423e a65b 7276 a7bf 3a3e
000007d0: 42de 8141 60fa a93d 2c88 2478 9d71 973d
000007e0: c992 87fc 4abf a03d 0983 82f0 bafd b03d
000007f0: f964 ebe5 4b28 983d 69dd 1ea8 4675 d63d

exp_avg f8 [40]
4.4531071317895475e-05 3.266850933051979e-05 -3.4728201818219644e-05 -5.646167773364099e-05 4.160331831636766e-06 3.297008466488264e-05 -4.598075844305495e-05 4.3752223944457485e-05
7.578157238018329e-05 1.5359545669088226e-05 1.7970071010364166e-05 2.6986454264652525e-05 -1.7139232378394806e-05 -2.4251778618776335e-05 9.39851901293895e-06 5.801587559954348e-06
-1.3460257286525426e-05 2.3920878481224625e-05 7.847832191595778e-06 0.0002020566099285412 2.4351197316887253e-05 4.7172543734398525e-05 -0.0002672023009581853 -0.00017021601473603338
-3.155955816443622e-05 -5.101892180276016e-05 0.00017855894081281664 -3.5827422201549535e-06 0.00011682222659546346 0.0004030959513648996 8.432885450651772e-05 6.440541231372822e-05
-2.3960944115823112e-05 -8.528468740525778e-05 5.941959855066098e-06 0.00010886315575300928 -4.1408166364876066e-05 8.397469242022907e-05 5.429288916957803e-05 5.604657298135153e-06
00000000: 6ed7 b0f5 db58 073f d9d6 f76e b120 013f
00000010: 04e4 afed 2335 02bf 24f8 8879 289a 0dbf
00000020: aec9 5a4e 1f73 d13e d091 a97b 2b49 013f
00000030: 732d 7fd4 6e1b 08bf d271 bef7 52f0 063f
00000040: 663c 0380 9ddd 133f c7e2 f7f0 0b1b f03e
00000050: f018 72e0 cdd7 f23e 0d57 1a04 1f4c fc3e
00000060: 54c1 a814 c7f8 f1be c697 5e89 096e f9be
00000070: 4403 099e cab5 e33e bbab d43e 6855 d83e
00000080: 57d0 c7ac 6b3a ecbe 0b6b 9640 3615 f93e
00000090: 4f79 ebd7 4575 e03e 90bd 2b10 e57b 2a3f
000000a0: de5b 9a89 b988 f93e 852d c842 64bb 083f
000000b0: 293d df24 e982 31bf 1b36 df6e 804f 26bf
000000c0: 8eaa 5a29 da8b 00bf a8e0 11ce a4bf 0abf
000000d0: b088 559f 7167 273f 323c 7d5d e10d cebe
000000e0: f0fa 1892 ce9f 1e3f 4798 a2ed d36a 3a3f
000000f0: 9308 59b0 361b 163f f92f ec8e 2ce2 103f
00000100: 5c77 af8a f71f f9be 9aae e4c5 5b5b 16bf
00000110: 2781 f47c 21ec d83e 3fe8 58c6 ae89 1c3f
00000120: c679 39c3 b5b5 05bf ec12 053b 7203 163f
00000130: 587d 9477 1177 0c3f e8ae 9d77 f481 d73e

exp_avg_sq f8 [40]
1.3083276171962161e-07 9.12268207142445e-09 6.034162936970814e-08 2.614545629748974e-07 2.322586012022818e-09 1.0691529534166352e-08 1.8479048395077654e-07 5.449186768142675e-08
2.4318021402315573e-07 1.6598844688505614e-07 4.889784566718731e-08 6.51982051188114e-09 7.442271092519324e-08 1.6015181287462629e-07 1.0310329339821243e-09 1.8301935109767535e-07
1.3720973962885688e-07 2.881046074307411e-08 2.224969412591106e-07 1.7585880636150001e-06 1.889806851399382e-08 4.680644001266634e-08 5.459190166802386e-06 6.571460378674991e-07
5.392346941930908e-08 1.6271525369095552e-08 1.438151010867118e-06 2.4582822191688705e-10 1.7597409843432215e-07 3.770171999040848e-05 3.9125495581472625e-07 2.6158923650117075e-08
6.314755619081835e-08 4.34963311624268e-07 6.665383094732911e-09 1.4702450629225996e-06 1.1555594819471244e-07 2.6631643552741857e-07 3.722719692269199e-07 7.772286151900792e-08
00000000: dfd3 7624 618f 813e 53b1 9e5c 3f97 433e
00000010: 455a 8b2b a532 703e 0ad6 1854 c18b 913e
00000020: dcec f1af 6bf3 233e 0ca3 6803 bbf5 463e
00000030: 42c7 5449 5acd 883e 2b37 f825 4e41 6d3e
00000040: 468c 50e4 cd51 903e 4c09 c5d1 5147 863e
00000050: 424b 0dff 7740 6a3e 8231 a553 9e00 3c3e
00000060: 52cb 302d 4afa 733e d476 643e c67e 853e
00000070: beef 62e2 87b6 113e afd9 b33c 7f90 883e
00000080: c5ce 21a2 7d6a 823e 3849 11f1 5bef 5e3e
00000090: 0170 dfca efdc 8d3e 5cea 3f06 1481 bd3e
000000a0: a544 4559 a94a 543e 0663 9933 0721 693e
000000b0: d8d2 43c4 c2e5 d63e 0194 686b d70c a63e
000000c0: f00f 9169 2ff3 6c3e fe24 5bce ae78 513e
000000d0: 694c 4ac2 cf20 b83e fabb 7ce3 a7e4 f03d
000000e0: b55d 118a 6c9e 873e e403 223c 3dc4 033f
000000f0: 2db3 4d7e b541 9a3e bd5a 369b 8216 5c3e
00000100: 82c3 878e 77f3 703e 30a8 09e0 9c30 9d3e
00000110: a6c4 258d aaa0 3c3e 3158 d88a a7aa b83e
00000120: 32eb 3abd f104 7f3e 7173 f311 48df 913e
00000130: 7a03 796f 95fb 983e 1fd8 2c0a 13dd 743e
