darts_logs/2023-06-13_06_53_46_torch_model_run_20030/checkpoints/last-epoch=99.ckpt (torch, 22115 bytes, 19 tensors)

rnn.weight_ih_l0 f8 [40, 1]
0	0xbfdcd08d569f0329	-0.4502290101918783
1	0xbfe48448a327b280	-0.6411479174253856
2	0x3ff4a03bdbbbde01	1.289119585357071
3	0x3feeee8f1573a596	0.9666209620456125
4	0x3fd8b140000c6368	0.3858184814903809
5	0x3fc0af065559f7f2	0.13034133117247354
6	0x3fec989f453f7209	0.893630633592296
7	0x3fc04ae41f546f21	0.1272854950883522
8	0x3fbf94b8de6eb9d5	0.12336306982499619
9	0x400a51eaa88ab0a9	3.289998356564031
10	0xbfe9d8b3eb9ff6a6	-0.8077029802368159
11	0xbfe5b5635a485de1	-0.6783921016057627
12	0x3fda31e90eb97376	0.4092962878983636
13	0x3fe2e4f69367eb71	0.5904496077558702
14	0xbfdb3737490ca41a	-0.4252451146481363
15	0xbf864737172d10f2	-0.010878019709374052
16	0x3fd9744b17e4eed6	0.39772298177170506
17	0xbfe5dd5cd8830d7c	-0.6832718113659406
18	0x3f9a0cb35e6b34fc	0.025439074170937367
19	0x3fd15aeb9c755075	0.2711743381416974
20	0xbfd3787f0a102326	-0.3042295072814788
21	0xbfd48cef9486582b	-0.3211020422398884
22	0x3fc2b3bfd9528943	0.14611051665731098
23	0xbfd446c30ffc3a51	-0.3168189674478628
24	0xbfd0f36ba7c9890e	-0.26485721002076523
25	0xbfd3432ac868a827	-0.3009745556943266
26	0x3fd86d02f970f7fb	0.3816535411787069
27	0xbfd78b33b1e2c50d	-0.36787121173536336
28	0xbfd004dd88e951a7	-0.250296958639661
29	0x3ff85484181919ee	1.5206337872820046
30	0xbfefe87360912af0	-0.9971253286433619
31	0xbfd4ddd381b709a5	-0.32603919665793973
32	0x3ff7c735cb6787a2	1.4861352868542572
33	0x3fef434028e79030	0.9769593047062752
34	0xbfd16fc606688ae0	-0.2724471151906709
35	0x3fcc7b51a31978f3	0.22251339401095258
36	0x3fe6e1c5f25a1450	0.7150602086482056
37	0xbfdba5b26983e593	-0.4319883375570381
38	0x3fa2002bd02edda5	0.03515755573556171
39	0x40021b3bea965ac5	2.2632978751310895

rnn.weight_hh_l0 f8 [40, 10]
0	0xbfa7ed28c07cd955	-0.04673125600531828
1	0xbfb6fe3c1e832908	-0.08981681580477041
2	0x3fc74061a2913e11	0.18165226400240944
3	0x3fce52c1e1af312e	0.23690055389159553
4	0xbfcf9fd283f74404	-0.24706489032408296
5	0x3fbaf73628bc706f	0.10533464903386557
6	0xbfc05daff6ee32d1	-0.12785911137725361
7	0xbfd27dedcc85e825	-0.28893609021145245
8	0xbfd5ebe5a83b266a	-0.34252301625074344
9	0x3fcd2377035e89b3	0.22764480270877882
10	0x3fcbfd7064bbb7f3	0.21867184561364147
11	0xbf85378fd02a8914	-0.010359881916262505
12	0x3fb664c15126a8e6	0.08747490149713463
13	0x3f884eee4edf9183	0.011869298727057003
14	0x3fafcc2a41103090	0.062104530756273424
15	0xbfcbb85d005ae0e7	-0.2165638210042353
16	0x3fcc216a5a96a83c	0.21976975844637703
17	0xbfd1d187cb7eab92	-0.27841372368373485
18	0x3f9d58b5803f3bce	0.028658710434509342
19	0xbfabc6383a745292	-0.054246670852227244
20	0xbfd1228ff688f111	-0.26773451877285576
21	0xbfc7c9c36d9177b9	-0.18584483003627186
22	0x3ff787842de21590	1.4705850403127876
23	0x3fe3a42ba0ff411d	0.6137903351282464
24	0x3fca3a620fd223a8	0.2049067094087864
25	0x3fdcdd77fbf62834	0.4510173759996434
26	0xbfd14d815f6c98e0	-0.2703555518986729
27	0x3fbb953d2981cbc9	0.107745955117749
28	0xbfd41e8497d3a76d	-0.31436266733964296
29	0x3fa1f77532848325	0.03509107820196381
30	0xbfe703a92e4b9209	-0.7191968826487606
31	0xbfd543080d261276	-0.3322162750630818
32	0x3fc3a39a6ef5c4f4	0.15343027513475926
33	0xbfcdf03cbec94837	-0.23389396014914762
34	0x3fc2f275ab947c40	0.14802428129130085
35	0x3fad5cfe212b557a	0.05735010294817307
36	0x3fe99fc3339de75a	0.800752259077153
37	0x3fd1ab41c5c3023a	0.2760776931063763
38	0xbfd4d06b73865036	-0.325220930878689
39	0x3fd88d475a771af9	0.3836229690027007
40	0xbfe0a4d17477f452	-0.5201194071556847
41	0xbfd306a4f60fb90d	-0.2972805407470254
42	0x3fc8983cbc5198fc	0.19214591212512022
43	0xbfc67489f512a988	-0.17543148485613025
44	0xbfc44d2518e4d64b	-0.1586042758514615
45	0x3fd02ad4a164a7e1	0.25261417161038763
46	0x3fd8ac82546fd319	0.385529119928195
47	0x3f913cc409421faf	0.016833365502435246
48	0xbfd9db03a893a987	-0.40399257147387185
49	0x3ff9a79e0828331e	1.6034221953042969
50	0x3fc2fe5e5e736a75	0.14838771449906898
51	0xbfb2a7fc8d766bd4	-0.07287577108074511
52	0xbfc4c7970ff856e6	-0.1623410060862433
53	0x3fc7cf6b8b5d40ba	0.1860174589624018
54	0xbfe71e9e2e1fc32b	-0.7224875355587747
55	0xbfd87357a2a05788	-0.3820399368427094
56	0xbfe42328afd786ff	-0.629291861954897
57	0xbfe3faac9dab10c5	-0.6243498877961647
58	0x3fe2f2014f5b542e	0.5920416402756297
59	0xbfada363cb5e676a	-0.057887190413750414
60	0xbfe4dcef67d04358	-0.6519696261985741
61	0xbfdb400f2f50e3c2	-0.42578487034512247
62	0x3f992a110801fac2	0.024574533571007924
63	0xbfbd6e3c8df8c3ce	-0.1149633261309326
64	0xbfb5fc517c9b4d96	-0.08588132183222394
65	0x3fd94cb0a193b587	0.39530578402521893
66	0x3fe316c64370f687	0.5965300862514632
67	0x3fdaa953078ed1ce	0.41658473718714795
68	0xbfce30d09fbcaa8e	-0.23586471366555312
69	0x3fd5119979a250bd	0.329199188979384
70	0xbf9c39c967633a08	-0.0275641888954912
71	0xbfc66dc3ec894843	-0.1752247719728662
72	0x3fd0a8b168cce5d1	0.2602962039414623
73	0xbfd2e16a98bc37bc	-0.29500832477139816
74	0xbfbc359732016337	-0.11019272776446774
75	0x3fb846402ca6a110	0.09482194032773728
76	0xbfc0c757eca53a54	-0.13108347945167742
77	0xbfd5354a0110cc89	-0.33137750724854037
78	0x3fb0e3820ba7ae92	0.0659714964346512
79	0x3fa6fc862a5a0c35	0.044895355863467414
80	0x3fd3ee71f360a612	0.3114285351499301
81	0xbfd4e3f9707a9cd7	-0.3264144514491369
82	0xbfac45fe2dd031c2	-0.05522150334590804
83	0x3fcedeb8c44c170d	0.24117192826104664
84	0xbfd446d81d9c1565	-0.31682398692676933
85	0xbfbe9b5b8d5b4b30	-0.11955806923951395
86	0x3fc16f81e2531340	0.13621543456079088
87	0x3f59e597356746e1	0.0015806175848535541
88	0x3fd14bb429f41924	0.27024559113523794
89	0xbfcb05f45db6512e	-0.211119218595408
90	0xbfd2aba7a3ec03bc	-0.2917269802856557
91	0x3fce62c23763cb2f	0.2373888750513173
92	0x3fd8ecc81a7198dc	0.3894520052184711
93	0x3fd04374ad3c3a3e	0.2541171733618376
94	0xbf965e253fcb48e9	-0.021843511599237173
95	0xbfe1d3d88807b34b	-0.5571100861394397
96	0x3fe3ae88ff703a4d	0.6150555600195929
97	0x3fcde8e5fa74acea	0.23366999367986035
98	0x3fcf491aa9ff2704	0.2444184618055304
99	0x3ffb91f9322c81cc	1.7231380424419624
100	0x3fce1b0d8377570b	0.23520058554884601
101	0xbfd960d376f06e6c	-0.39653479209093834
102	0x3f9359e54d0cff60	0.01889761240749921
103	0x3f7f3e29c0e80dee	0.0076276427266779145
104	0xbf78374987397ea1	-0.0059121010013708794
105	0x3fd7f031865f2c12	0.37403524515383524
106	0xbfc01ca5b710290d	-0.12587424696568697
107	0x3fc121ab60f8a4de	0.1338400100224026
108	0xbfcc8a8de4ed20ba	-0.2229783408931832
109	0x3fc03f20c7bf6b83	0.1269265151339277
110	0x3fdaf5c263441ab9	0.4212499589342929
111	0x3fccdbd1ee301de5	0.2254583752658014
112	0xbfd11c38e9bd356b	-0.2673475535019267
113	0xbfac5bbfb786e091	-0.05538748851125875
114	0x3fd072b85ccdf35d	0.2570019632619756
115	0x3fd76db51e3868b5	0.3660710139389594
116	0xbfd5789efdc300e2	-0.33548712521952784
117	0xbfb049d5853ed5cd	-0.06362661841452351
118	0xbfd036a4d065a91b	-0.25333519316940717
119	0x3fc40ee1950031de	0.15670413756778506
120	0xbfce597bdcac92ed	-0.2371058299551331
121	0x3fb1e66966bdd11d	0.06992205389343949
122	0x3fcd842cc8f0fe02	0.23059615909186
123	0x3fd2dc5f8321ae32	0.2947005062658007
124	0xbfb26a105d87acb6	-0.07193090709158664
125	0x3fcfe64f54dc98aa	0.24921600001943506
126	0x3f9a290fca141b8d	0.02554726286782798
127	0x3fd89f0db6f297ca	0.3847078596685348
128	0x3fad848aa1c3116b	0.05765183663018799
129	0x3fdb46934b55370b	0.42618257862783143
130	0xbfe65bb69aed09e7	-0.6986954713723293
131	0xbfd2d61278c6af10	-0.2943159274534404
132	0x3fd0dd6269b78521	0.2635122330085143
133	0xbfd628c9446c3849	-0.34623939210803606
134	0xbfbb5a6441115a63	-0.1068480166298769
135	0x3f9a1ee962f66b48	0.025508543648906895
136	0x3fd3f1bb1c65f4fd	0.31162908337849143
137	0x3fcb4aca9d033dd8	0.21321995417245776
138	0x3fb3609d7c79d472	0.07569298066103317
139	0x3ff077106cde4474	1.029068398729831
140	0xbfe3e49d1a18989e	-0.6216569432915724
141	0xbf99738d49465c9e	-0.024854858014432872
142	0x3fc2fad5990c126f	0.14827985737806013
143	0xbfcc20dec5984bec	-0.21975311897457972
144	0x3fcd1b380da0ab0b	0.22739315667544022
145	0x3fb450128d3056b1	0.07934680888169045
146	0x3fd5b8b7223b5473	0.33939913123078397
147	0xbfa6805e6c732c0e	-0.0439481265435334
148	0xbfd214d3ab492436	-0.28252116896743773
149	0x3fda607ea1794da0	0.41213956612519986
150	0xbfc1840997bf691c	-0.13684196385913416
151	0xbfcf9bc398b7ae22	-0.24694104153546542
152	0xbfd10ce953cd975a	-0.26641305145164085
153	0xbfc637c6b6e0c23c	-0.1735771553953941
154	0x3fc15d3bcc530944	0.13565776325965306
155	0xbf74d482ebf03d52	-0.00508547917617304
156	0x3fc125f6caddd1b5	0.13397107034292124
157	0x3fa4ffb6d1368a28	0.041013443983747344
158	0xbfbffe2abd748e13	-0.12497202992795335
159	0x3f58c81dfb369d3d	0.0015125553880837716
160	0xbfbf50d9535752e1	-0.12232740673728017
161	0x3fc07b0383d89ed0	0.12875408113290243
162	0xbfd7a4061c08850c	-0.36938622224450124
163	0xbfd6ab5cf912cde7	-0.3542091781957581
164	0xbfa55fc330e5f01d	-0.04174623462583347
165	0x3fc6fe0b7a92cdec	0.17962783322364773
166	0x3fe33a1cde2f8f0e	0.6008438434186887
167	0x3f928f371b09ee8e	0.018124447846715123
168	0x3fd0642d0f4b1537	0.2561142587040481
169	0x3fef277d82ef2ced	0.9735705907163755
170	0xbfdd8f91414b3502	-0.4618876588472888
171	0xbfcbe4b93787c73d	-0.21791758738941694
172	0xbfb7f80d03953d8a	-0.09362870538210735
173	0xbfcf6aee0f42c881	-0.24545074219856036
174	0xbf85dd273a90e3b5	-0.010675722574989036
175	0x3fa693b6fa69ee2c	0.04409572417077032
176	0x3fd99935f463f4b1	0.39997624269728776
177	0x3fc0aa4b69250ed4	0.13019697793980944
178	0xbfd055a49ec27208	-0.2552272367845778
179	0x3fda5b1bcc521571	0.4118108268088099
180	0xbfb2d87c63d78150	-0.07361581265968664
181	0xbfe130a31cd0cb6e	-0.5371871531300323
182	0x3fb6247149086409	0.08649356873537796
183	0xbfb5088a2aa4cbda	-0.0821615556822474
184	0xbf9dfb2c434ebb2a	-0.029278461082579067
185	0x3fd8b97f5389a510	0.38632186086631837
186	0x3fcb0e9d4411e7ab	0.21138349364974593
187	0xbfbf56b45a392f51	-0.1224167557022018
188	0xbfb490ed9b4c5a26	-0.0803364280840034
189	0xbfd2cbf9c1f1936d	-0.29369968356905113
190	0xbfe1081dab93b754	-0.5322407103646847
191	0xbfa7924fe11fbb23	-0.04603814719290813
192	0x3fc3a8846898e1f9	0.1535802374580866
193	0xbfce7882b6521fc2	-0.23805269148237868
194	0xbfd5149e38b3cf14	-0.3293834260687032
195	0x3fa474f8bed2c4d1	0.039954922956334855
196	0x3fd992a8be587b49	0.39957636440697236
197	0xbfc482db8ab9a3b8	-0.1602434565895956
198	0xbfb2f11eb3d3803e	-0.07399169817244997
199	0x3fefe95724879e07	0.9972339356872347
200	0x3fc665a29e5178d0	0.1749766610182122
201	0xbfd581078e847377	-0.33600033681596336
202	0xbfd4821c7fd489bc	-0.32044136508389065
203	0xbfb657838a0c3613	-0.08727285499863795
204	0xbfe0ab19403beb0a	-0.5208860640117063
205	0xbfc573e6a96eb2af	-0.1675995185190877
206	0xbfcfe22c8333b0a7	-0.24908977896064252
207	0xbfde32dbe92cca8f	-0.4718541886424327
208	0x3fdc29d78787f32e	0.44005382762388734
209	0x3fbf993a67b0a17f	0.12343182593816059
210	0x3fce2547b8e409a7	0.23551270034665814
211	0x3fd14e73addf0824	0.27041332225428705
212	0x3fc489554f7d2f48	0.16044107800768814
213	0xbfd4006b785d02a1	-0.3125256228850422
214	0xbfd81a19f62a9c8a	-0.37659310378735056
215	0xbfddb857d65642d3	-0.4643764107832286
216	0x3fc6e323512bb4b7	0.17880670035757415
217	0xbfd8409279f14902	-0.37894117268037075
218	0x3fd94a1b84a607af	0.39514816240272926
219	0x3fd60ba7caefa1b6	0.344461391620395
220	0xbfd1a534d367c59c	-0.27570839543394654
221	0x3f8a4c931360cbae	0.012841366795418665
222	0xbfe4d5928054b151	-0.6510708338223968
223	0xbfb1ce0d854b3b0a	-0.06955036644215454
224	0xbfdebb6a260ff9db	-0.48018888203651294
225	0xbfa4150410c109f3	-0.03922283844487486
226	0xbf8d385dc8500da5	-0.014267666507300112
227	0xbfd70beebf3d9ae2	-0.36010330844730565
228	0x3fd089d826db218b	0.2584133510067878
229	0x3fe3ea1de999c2c7	0.6223287165176651
230	0x3feae9cef678c300	0.8410410703564537
231	0x3fe4f61975f9f15c	0.6550414375520108
232	0xbfe5130d118a7a41	-0.658575567493081
233	0xbfe01ff40188fa4a	-0.5039005308133906
234	0xbfe747eb2f6b215b	-0.7275291372434752
235	0xbfdbd99af081815a	-0.435156569355987
236	0xbfb48652bc27e3f7	-0.08017460912368778
237	0xbfdaf8f8b5829911	-0.42144601560211564
238	0x3fb295f3cbcd34d2	0.07260059095024765
239	0x3fdb80d730eff9cb	0.4297388055710171
240	0x3fd115697acfa8f1	0.2669318866088722
241	0x3fdb46646872bf0d	0.4261714000704025
242	0x3fa55c99cec083a4	0.041722113121301946
243	0x3fe542caaf036c94	0.664403287718772
244	0xbfc94eff8866b3bf	-0.19772333297933462
245	0x3fc028c703482e52	0.12624442730190083
246	0xbfbafbbb2e41fee5	-0.10540361289349283
247	0x3fc608eb588a4992	0.172147196037781
248	0xbfd1324eb11f0523	-0.26869551941861597
249	0xbfe60418be9af022	-0.6880000803716977
250	0xbfe8b8c074da55c5	-0.7725527078898088
251	0xbfcc68614ffc654a	-0.22193542867243315
252	0x3fdb7bcc3980515e	0.42943101516109106
253	0xbfe460be1269f245	-0.6368093833585325
254	0x3ff175e900ec9bcb	1.0912866626838305
255	0x3fe89b5830c28974	0.7689629509298315

rnn.bias_ih_l0 f8 [40]
0	0x3fc44f6ef2c6af37	0.158674114745162
1	0x3fb89f05fb230d61	0.09617650395653278
2	0x3fb2070b50b6acd6	0.0704199859671236
3	0x3fd98402850e38ce	0.3986822413797996
4	0x3fc518ce4313c045	0.16481951022388067
5	0x3fe2d48a3d2415c5	0.5884448236617393
6	0x3fcbfd325ae09f75	0.21866445004820503
7	0x3fe14b025f11f7ff	0.5404064041938453
8	0x3fc5bc82f8897ff0	0.16981541762925145
9	0x3fc886a35172f119	0.19160882451058894
10	0xbfd2fa804d77b160	-0.2965393787879034
11	0x3fc9fe2cb547491e	0.203069294466851
12	0xbfa1f2f562b701c2	-0.03505675153747091
13	0xbfb8f9156b8ba65d	-0.09755071521399246
14	0xbfb272f6c23a1222	-0.07206670991769973
15	0xbfc8a67cb3f69bbc	-0.19258078372260268
16	0xbfba1e588555d7db	-0.10202553992516476
17	0xbfd13727236af995	-0.2689912649037976
18	0xbfbf23dd5c38fd9d	-0.1216410017159348
19	0xbfc54551e6b666dd	-0.16617797627696165
20	0x3fdf6d399ea440fb	0.49104156963677753
21	0xbf850019336ec304	-0.010254094011402433
22	0xbfd7492beafcb986	-0.36384103725404093
23	0x3fc1d89688fb8ea8	0.13942224205594766
24	0xbfd9253e9a93fc99	-0.3928982266952033
25	0xbfe4c1bdefd35761	-0.6486501392453016
26	0xbfd47da7a1535f8b	-0.32016936068020446
27	0xbff04b453d91f158	-1.0183765797692867
28	0x3fe362735293d0f0	0.6057678807105997
29	0xbfd728d603644cda	-0.36186743098478547
30	0x3fcdeff244538f80	0.23388508163690958
31	0xbfc0681d4cba62a6	-0.12817732092368778
32	0x3fc104726a33a9aa	0.13294820962557924
33	0x3fd23ae5554da9ec	0.2848447163620722
34	0x3fe0271beea036e1	0.50477406126603
35	0x3fd05d3452d101ca	0.2556887444261774
36	0x3fe101e0ef903dca	0.5314793280576222
37	0x3fd13ad95636ed3c	0.2692168561877286
38	0x3fdd93c897c2ecaa	0.46214499302341017
39	0x3fdfb67647c2d825	0.49551159866257627

rnn.bias_hh_l0 f8 [40]
0	0x3fc5c6d072c6af32	0.17012982944776806
1	0x3fd20e089ec8c37e	0.2821065474154735
2	0x3fc4daefe85b5646	0.16293143125101234
3	0x3fbe29123c38e5f3	0.11781419725675572
4	0x3fd6a2483589e071	0.35365491131188437
5	0x3fe994dfcd2415e1	0.7994231230410912
6	0x3fb0c03c25c13ef3	0.06543327256917646
7	0x3fc7cbee2c47dfc4	0.18591096079012293
8	0x3fba8dfd7112ffd5	0.10372909556008321
9	0xbfcd942a0e8d0ee8	-0.23108411512850258
10	0x3fc2de8325109d09	0.14741553602036842
11	0xbfb3acd5f5716e28	-0.07685601465475911
12	0xbfdd5fbb3c56dff7	-0.4589679803134454
13	0xbfd67dff1ae2e9d1	-0.3514402163088138
14	0xbfd0e15a788e849c	-0.2637544801055556
15	0x3fd430656604b230	0.315453862788476
16	0xbfce991ceaaaebd0	-0.2390476365888774
17	0xbfd1b583c36af98d	-0.27670377811218644
18	0xbfb8f6805c38fd9b	-0.09751131297615816
19	0xbfd2d4ccb35b3350	-0.29423825755366284
20	0x3fe6fac189522055	0.7181098634764661
21	0x3fce57ceecc913bb	0.23705469667234333
22	0xbfc3eeb7e7f9736a	-0.1557226069152436
23	0x3fd38bf6f07dc75c	0.3054177616642073
24	0x3fa4d6382b601cc7	0.040696864409306914
25	0xbfdac78189a6ae1f	-0.4184268802880257
26	0xbfa12a228a9afc32	-0.033524588985067175
27	0xbff0136bc591f152	-1.0047414510327894
28	0x3fd1fb453d27a1e8	0.28096133205556706
29	0xbfc11e58a6c89a15	-0.13373859542589686
30	0xbfb7ecb3d758e159	-0.09345554358958931
31	0xbfcf3e408cba622b	-0.24408728476989103
32	0x3fda8f759519d4ab	0.41500606117854016
33	0x3fe28e80c2a6d51c	0.5798953820982748
34	0xbfb408ac8afe4825	-0.07825735467329815
35	0x3fb3dfd35b4406af	0.07763405779044306
36	0x3fe100813f903dcb	0.5313116303895468
37	0x3fe05a027a1b76cf	0.5109875092418522
38	0x3fd94e9727c2ecad	0.395421780423656
39	0x3fe2f7baa7e16c17	0.5927403716008283

V.weight f8 [1, 10]
0	0x3fd19c90701bc614	0.27518092105955927
1	0x3fc5337d036c4cde	0.16563379923954974
2	0xbfdff941669fdc53	-0.49958834669036384
3	0xbfdc5d495c012b66	-0.443193759773456
4	0xbfbb57790ef4f723	-0.10680348029287905
5	0xbfdbe710fd572bbb	-0.4359781717327526
6	0x3fd3aef71a0eb3cc	0.3075540308444118
7	0xbfccd3d2f3345b4b	-0.2252143561861096
8	0x3fda55f17fdbd82e	0.4114955662365699
9	0x3fe6b33882eaf384	0.709377532671724

V.bias f8 [1]
0	0xbfb34e62585d3baf	-0.07541479737595468

best_model_score f8 []
0	0x3f6ed89a1fce021a	0.003765393279934648

exp_avg f8 [40, 1]
0	0xbf1133c3c2d44675	-6.562120752942066e-05
1	0xbebfc218f9259c61	-1.8929358459264641e-06
2	0xbef27156a9be3611	-1.7588356612521493e-05
3	0x3f1362fbf81b6f59	7.395422837979999e-05
4	0xbec58c16966b29d5	-2.5686287473448534e-06
5	0xbef84f4b038521c8	-2.318357312106211e-05
6	0x3f136b67f0892cc1	7.407972237520861e-05
7	0xbf0a217a06a4c33e	-4.9840485035429556e-05
8	0xbf175cd6c8285db6	-8.912144588923182e-05
9	0xbee004f9c453164f	-7.63866240517243e-06
10	0xbf01c046fdc095a5	-3.385750434884851e-05
11	0xbe944e1ba65f125d	-3.0256970828490455e-07
12	0x3f0d5a0dfcf61b61	5.598406971345813e-05
13	0x3f16bcacff02f69f	8.673482784878971e-05
14	0x3e6b3f9bd7bf29ef	5.075423367659022e-08
15	0xbf127d37ce7bc1a2	-7.053044430072608e-05
16	0x3f138debe6e56a5d	7.459404307522942e-05
17	0xbef99e40c153f67b	-2.4431396089311178e-05
18	0xbf0cebe3ea8f69a5	-5.5163281394948826e-05
19	0xbf22c0eec09b2d6c	-0.00014307894189467417
20	0xbf001706039b9f03	-3.068911651188217e-05
21	0xbee46132fcaca7ac	-9.71779072285794e-06
22	0x3f409f9978241986	0.0005073069917507645
23	0x3f28c6a6fec4f389	0.00018902576938186987
24	0x3ef23cfc5b4717e2	1.739332738439476e-05
25	0x3efc0c65ec9896e4	2.6749067535323116e-05
26	0xbf2f0b8a7e696d5a	-0.00023685517881486922
27	0x3ec9e98753648c9b	3.088977474822986e-06
28	0xbf1d71aefe7f9a58	-0.00011232023791727644
29	0xbf50f9cec08bc433	-0.0010361212791247909
30	0xbf208e21ecf63e52	-0.00012630619174246405
31	0x3e8feaaf59e150fe	2.3779822994291692e-07
32	0x3ed7845b5f9f07ff	5.606894314115831e-06
33	0x3f20b585e50ded79	0.00012748012025185962
34	0x3eb3c9fd8864495f	1.1795177968272148e-06
35	0xbf2c3dd0ee52d861	-0.00021546531130462162
36	0x3f11108b106b62e1	6.509636669295049e-05
37	0xbf19d95ec3987106	-9.860649961307777e-05
38	0xbf17280e90e73bbc	-8.833493141156742e-05
39	0xbef4b8f721061c8d	-1.9762535943293253e-05

exp_avg_sq f8 [40, 1]
0	0x3e5deafa5425a61f	2.7863199089487648e-08
1	0x3e332166862278aa	4.454159792869529e-09
2	0x3e491a85605775d4	1.1689773603041955e-08
3	0x3e6a3f8d4ab7889b	4.8891174965973526e-08
4	0x3e02d40059982906	5.479707132396566e-10
5	0x3e23eac9f20353ed	2.3186607218464394e-09
6	0x3e6cdf2bdc058b25	5.3777849287245874e-08
7	0x3e4c9c1e9f610d9a	1.3322495978049625e-08
8	0x3e6cbc501d01265b	5.352422116683314e-08
9	0x3e5329450c6e4848	1.7845267287807688e-08
10	0x3e4666ede8739aae	1.043177567804307e-08
11	0x3e28cf39ff6f5b9e	2.8882034502560863e-09
12	0x3e5ef8b731c947bc	2.884449933272808e-08
13	0x3e6e536c294de2ef	5.648633308921669e-08
14	0x3dfa1e58021bee14	3.8007464025794976e-10
15	0x3e68afe203bb36b9	4.598319988461427e-08
16	0x3e6cdc96e637e968	5.375906366937913e-08
17	0x3e3d34b4b4aa2e79	6.8000243861439604e-09
18	0x3e6531242cd580fd	3.947309821605843e-08
19	0x3ea4f36087e33962	6.243792680883941e-07
20	0x3e30e7f4d120c0fb	3.936253338942328e-09
21	0x3e500c40f703bae6	1.4945740146297714e-08
22	0x3ebcb6cf41f8f6a0	1.7114937306406588e-06
23	0x3e85e26a93f88612	1.6305177473565446e-07
24	0x3e47236acfc62fff	1.0774633179393696e-08
25	0x3e2bf8d00c38765d	3.2563605993668204e-09
26	0x3e97000249fcf466	3.4272722792048447e-07
27	0x3dc1b0a7c2dafe78	3.217803138261487e-11
28	0x3e6dfb6bf0877c58	5.5846042515877e-08
29	0x3ee1059285f39f6e	8.116611012145866e-06
30	0x3e7bc77c60fde69d	1.0348573930936136e-07
31	0x3e48cf5ee5c32d22	1.1553075989279222e-08
32	0x3e515866ae33d3c9	1.615408508084672e-08
33	0x3e810cee3eb8305c	1.2703620143361145e-07
34	0x3e2ae7fe252ee210	3.1322964582021283e-09
35	0x3e95fe31b6ca364c	3.2772043460295475e-07
36	0x3e65a6ecba9c7235	4.033008533922607e-08
37	0x3e723ddbb6728753	6.795538142143118e-08
38	0x3e724fd277dd8368	6.821679040875636e-08
39	0x3e45be5a755242c0	1.0125137764919496e-08

exp_avg f8 [40, 10]
0	0xbef5129e3b86e753	-2.0096518456225978e-05
1	0xbef531e8c18c9eb5	-2.0213086915492606e-05
2	0xbeed28721aeeccd1	-1.3903613618504458e-05
3	0xbf070bfecb330ac0	-4.395839041528493e-05
4	0x3ef36dd279610b60	1.852893145605093e-05
5	0x3f100d676d7a0651	6.123489162670441e-05
6	0x3f0129fd6ebdc220	3.2737776421213694e-05
7	0x3f033bf42ef6f4ff	3.668631495255293e-05
8	0xbf05d81f91020a86	-4.166456540224011e-05
9	0xbf078df76ffb5fba	-4.492675179584801e-05
10	0x3e9f68c668146c0f	4.6803470617342477e-07
11	0x3ea0aca8caf91843	4.969373516648305e-07
12	0xbed63b7fddc1b73f	-5.300621946797468e-06
13	0xbed277f58339068a	-4.403254979802626e-06
14	0x3ec69febff9c0b24	2.697073793524005e-06
15	0x3e7fcf91b61d626c	1.1850452843793114e-07
16	0x3ecfb86599ed12b2	3.781354464579085e-06
17	0x3e913ed77522e05f	2.5697760465014253e-07
18	0x3eb054800b1e0ad7	9.733485452917737e-07
19	0xbeeba3b91919ea54	-1.3179561196387562e-05
20	0xbeb9c4a612c01f9c	-1.5359019682765134e-06
21	0x3ea5b053e0f5cfbd	6.463760104228575e-07
22	0x3eeb11ca840c12a7	1.2907741735465368e-05
23	0x3ee4dcb600a37418	9.947849339326075e-06
24	0xbedd83c3901920f8	-7.03685350484533e-06
25	0xbeb2e7c8cfdda8d7	-1.1268501220693052e-06
26	0xbee14a8f8828f7ce	-8.245111762335887e-06
27	0xbe921aaa33b0a8ee	-2.697730001078448e-07
28	0xbebf611810275545	-1.8703504457336523e-06
29	0x3f024a4c3deb1429	3.488583728520511e-05
30	0x3efa8d94c6a05a13	2.5322963132701626e-05
31	0x3efa0bea84ede35e	2.483992312416209e-05
32	0x3eed7eb9a692eb8c	1.4064321663167523e-05
33	0x3f0b1ee97899721b	5.172872540690575e-05
34	0xbef535a3788e6ff2	-2.022697984536965e-05
35	0xbf140fa5b0ec7bd9	-7.65271072222651e-05
36	0xbf03e541cc24abcc	-3.794772193751287e-05
37	0xbf076e3f2405aa78	-4.4690420056910215e-05
38	0x3f0bf022e7e2acd4	5.328756832175823e-05
39	0x3f07617d12c202ac	4.4595364983917224e-05
40	0x3eaae37849a424e4	8.013413606299265e-07
41	0x3ea02ea9983e43b0	4.822693857477495e-07
42	0xbebca9fa868d59e7	-1.7085062841891594e-06
43	0xbe941324c9993a9e	-2.991375339421071e-07
44	0x3e73f148eec71988	7.429167298627822e-08
45	0xbeb975c2120b5d98	-1.517533810770988e-06
46	0x3e9a245485e02719	3.8954488512707693e-07
47	0xbeb5d77c6fe46198	-1.3018693035324495e-06
48	0x3eb5c041a325af8a	1.2964607206356851e-06
49	0xbec61aa3c31571a1	-2.635009445013488e-06
50	0xbed0d7f8298d1903	-4.015834428389026e-06
51	0xbed171c5bf61054e	-4.159074697142091e-06
52	0xbec6c07b636659af	-2.71223577925501e-06
53	0xbee1c0a4c22230b0	-8.465058332761697e-06
54	0x3ecc689a4742f177	3.386569512013416e-06
55	0x3ee9bf38e14ea039	1.2277108035821479e-05
56	0x3eda5515cdab7b72	6.278124795782281e-06
57	0x3eddd5af04b5846a	7.1131472155493004e-06
58	0xbee1c228b29697e4	-8.467880962491994e-06
59	0xbee0baca86ecf19f	-7.977320107260137e-06
60	0x3efa939022177934	2.534524731411768e-05
61	0x3efab0dbf0e54dcb	2.5454383881863025e-05
62	0x3ef49082ae6ff995	1.9611829795701514e-05
63	0x3f0d5c0d69cbd21b	5.5998954143907975e-05
64	0xbef975d44a6fae8a	-2.4280806112316043e-05
65	0xbf145a3158107086	-7.763792201881574e-05
66	0xbf05ddc9c72baa35	-4.1706772113976274e-05
67	0xbf08341e6ba85320	-4.6164682732696563e-05
68	0x3f0ba1d70411b748	5.2704214348205244e-05
69	0x3f10420af2d68631	6.201927018036829e-05
70	0xbeeacdead1208c0c	-1.2781316886706035e-05
71	0xbeeaa908849584d9	-1.2712615119427777e-05
72	0xbee6f490bfb802a5	-1.0945956083753298e-05
73	0xbefecc30ada9ae94	-2.9370897076593116e-05
74	0x3eeb44401c4d80c6	1.3001729607331816e-05
75	0x3f04740245996072	3.9011306125658835e-05
76	0x3ef71720b4cebdff	2.202066689321706e-05
77	0x3ef8c17126459cc6	2.360881116328093e-05
78	0xbefb6c6ad57d3547	-2.6153092533666847e-05
79	0xbf01b46b8458c3a8	-3.37691604211995e-05
80	0xbefc092fa64f6b41	-2.6737101865718973e-05
81	0xbefc9cf200e3edeb	-2.728754776003081e-05
82	0xbef5e435154b70a4	-2.087729929455051e-05
83	0xbf0f639603e53e90	-5.986978111371694e-05
84	0x3ef95399bbee2e45	2.4153294130564604e-05
85	0x3f15ea5bf67fd30a	8.360086724208348e-05
86	0x3f0744ad46aefd63	4.4380701033737054e-05
87	0x3f095535446f601f	4.831856545423084e-05
88	0xbf0e03cf6ff8e050	-5.724884794883255e-05
89	0xbf0f75f21f60b628	-6.000657224123864e-05
90	0x3ee3d9575cdce078	9.464735650874449e-06
91	0x3ecffa8198ecfb41	3.812139034136726e-06
92	0xbee56ffd17d6eeb0	-1.0222175428668253e-05
93	0x3ecadf8bd545ee58	3.2035383503140344e-06
94	0x3ea428036af56052	6.00704614865501e-07
95	0xbef22db406ada69e	-1.733639548310314e-05
96	0xbec0761742de9000	-1.9623389766066507e-06
97	0xbeecc5755c62c6b2	-1.3719235436890482e-05
98	0x3eeee253e75caac7	1.4726683030004917e-05
99	0xbefcb7f856bb9f09	-2.738822278916447e-05
100	0xbee9062b2d2d177c	-1.1932418976134033e-05
101	0xbee95287a3630e00	-1.2074652755328895e-05
102	0xbee2fb65a09eb2d5	-9.051332216924841e-06
103	0xbefbec5e8dd2dda8	-2.662975099518091e-05
104	0x3ee7ee310fa1ef64	1.1410921150415989e-05
105	0x3f03172a23ef40d8	3.641221382333506e-05
106	0x3ef4f4f91146bc56	1.998608156988617e-05
107	0x3ef6f8dad61f2de6	2.1907891443890668e-05
108	0xbef9cb7bb1c4e33e	-2.459989183132009e-05
109	0xbefde876ee936252	-2.8522553212480886e-05
110	0x3ec24b7cc92e1204	2.1809187926177912e-06
111	0x3ec1e6ea08ce1d61	2.1340857245287437e-06
112	0xbed26ac709d8d99a	-4.390978714455263e-06
113	0xbeaa6f1cc042a78d	-7.877955572517143e-07
114	0x3ebc494469426255	1.6859889102935914e-06
115	0xbed648e752cbe3e8	-5.313105515319397e-06
116	0x3eb44a06d76f476a	1.2093285854841562e-06
117	0xbec562bc6af78762	-2.5493726167760366e-06
118	0x3ed4c3ac0478da5e	4.950605279988196e-06
119	0xbee8ac723af404a4	-1.1765297897261343e-05
120	0x3eed14e54e052e1e	1.386719890263734e-05
121	0x3eef2cd094616868	1.4865425907274225e-05
122	0x3efbf30d277e2939	2.6654643505299675e-05
123	0x3f065422df3d0cf8	4.258853360152888e-05
124	0xbef87442230879e4	-2.3321279686178394e-05
125	0xbf06815b5355993f	-4.292545274147069e-05
126	0xbf0200972cca75dd	-3.433667516115531e-05
127	0xbefdc7b6baa5b48a	-2.8400547003416594e-05
128	0x3efa9ad649d24fe9	2.537234523865276e-05
129	0x3f145bf209c24073	7.766403945397449e-05
130	0x3efe080b3d27bda0	2.864019536191547e-05
131	0x3eff562ad64928b9	2.988490213543728e-05
132	0x3efd93b678f94926	2.820682817478953e-05
133	0x3f11e45570a0cb68	6.825229152766581e-05
134	0xbeff876e9e6df956	-3.0068427715240535e-05
135	0xbf173afc6285baeb	-8.861699519056478e-05
136	0xbf0b312dcc1ba958	-5.186482441195639e-05
137	0xbf0b9d22ff0a2143	-5.266917276453228e-05
138	0x3f0ef941ebf0ccb0	5.907757212533207e-05
139	0x3f15f3856ca7dbd7	8.373739107257694e-05
140	0x3e57604b9250e300	2.177073911790804e-08
141	0xbe6c6b2943e8c95f	-5.293376447272043e-08
142	0xbeb2d1ff6426b7c9	-1.121777487438329e-06
143	0xbeb7240994a63946	-1.3792974465662817e-06
144	0x3e9f0195828ea9b5	4.6202819930598784e-07
145	0x3eae46748bf39393	9.022717434551995e-07
146	0x3eb1117d059496ed	1.0173507887871407e-06
147	0x3e93b35c62cda3f0	2.9356224011970044e-07
148	0xbe9f2a68bab573be	-4.6440453146061363e-07
149	0xbec5a7e66d4c4448	-2.581579659718023e-06
150	0xbefc441c5786a522	-2.6956613028571452e-05
151	0xbefd0f9e8f16093f	-2.771474186636616e-05
152	0xbef2d5425ea515ac	-1.796059033522749e-05
153	0xbf0dcdc07dc1ecb2	-5.684608160635411e-05
154	0x3ef81fedc9b84f19	2.3007127863363447e-05
155	0x3f158b66abfec887	8.218588027267454e-05
156	0x3f062844c15a8e0c	4.226169418799713e-05
157	0x3f092f9aae5b7d34	4.803839492039733e-05
158	0xbf0da3753890c742	-5.653096656778194e-05
159	0xbf0cc71a0e6dbef4	-5.488918559748242e-05
160	0x3efa47a0da140445	2.506236854049974e-05
161	0x3efb9892c5de2f3e	2.6317586495446696e-05
162	0x3efbf0fa16946095	2.664691547690829e-05
163	0x3f0f1e6f94dba0f3	5.9354572483462634e-05
164	0xbefc225cdfb6b479	-2.6830892222374774e-05
165	0xbf13e81eeee68c3a	-7.593811799337736e-05
166	0xbf07f01e3fede944	-4.565803828078749e-05
167	0xbf07e6c6f00a86e1	-4.558844193992634e-05
168	0x3f0a5d67a5e37db9	5.028698500253053e-05
169	0x3f139fe06bc9d840	7.48615957009988e-05
170	0xbee1ad5423c08a5c	-8.429081496845788e-06
171	0xbee174b45a334e89	-8.323610762784514e-06
172	0xbedfcdf873ba812a	-7.582800943290144e-06
173	0xbef4ce2635c04620	-1.984145215778142e-05
174	0x3ee2cc252e879127	8.963318990980684e-06
175	0x3efb2f1a1723396e	2.5924674852012405e-05
176	0x3eef3c71b27a81ac	1.4894537869126371e-05
177	0x3ef09147aea8ae04	1.57999992699675e-05
178	0xbef21b8fed016e5c	-1.7268814929456664e-05
179	0xbef8f4b592488ce5	-2.3799796638479613e-05
180	0xbef7d3521f833ff8	-2.2721740578657252e-05
181	0xbef78949e628bd77	-2.244594942107716e-05
182	0xbee9e40a276d9f93	-1.2345685929296228e-05
183	0xbf0892c95a380113	-4.6870012081258937e-05
184	0x3ef2eeed0a7fca8b	1.805620618706509e-05
185	0x3f125e7ec8969a0a	7.007263970724306e-05
186	0x3f01e3a4c285400c	3.41210036959306e-05
187	0x3f054cbcfdb7a687	4.0626065778881725e-05
188	0xbf0999303827768f	-4.882505801949183e-05
189	0xbf04e3be25cbbbd5	-3.984378847642743e-05
190	0xbefcad3da1d76677	-2.7348252947456742e-05
191	0xbf005f114526732e	-3.1225885908292526e-05
192	0xbf11cebec7c0aa5b	-6.793059759561389e-05
193	0xbf1a7c0f1ad78385	-0.00010103075211233103
194	0x3f0f589db91be44d	5.978804905554993e-05
195	0x3f18c52bf923e68e	9.44908227075386e-05
196	0x3f14e07ad3661093	7.963895482105054e-05
197	0x3f101549c16af3bc	6.135237377242938e-05
198	0xbf0c3407f937a7f9	-5.379342396934212e-05
199	0xbf2b415916348244	-0.00020794117436030897
200	0xbedd38da07163a12	-6.967086038213546e-06
201	0xbede2e105d2722c3	-7.195457742922062e-06
202	0xbed7bc143137b173	-5.658789422363262e-06
203	0xbef077ddc8a0fd5e	-1.5705325985713107e-05
204	0x3edc15e60a74dbf5	6.696114872631842e-06
205	0x3ef6504a53c805b2	2.127993978895898e-05
206	0x3ee8cd25d256b198	1.1826209241082988e-05
207	0x3eea99fa0f05705a	1.268457023744661e-05
208	0xbeee1ecc7bb7a148	-1.4362481912181258e-05
209	0xbef1fd1a9f2f6c18	-1.7155349222846503e-05
210	0x3ed2dfee21dd0889	4.500085678151485e-06
211	0x3ed18e2f4a952709	4.185535695208769e-06
212	0xbee93ca6e9068b5f	-1.203390209598081e-05
213	0xbec17111239de67f	-2.0792088237214894e-06
214	0x3ec6c233a4998d82	2.7130365978665018e-06
215	0xbeea450bb96d7b55	-1.2526373934283104e-05
216	0x3ecc2c4ab46d03eb	3.358485091281985e-06
217	0xbede38ba0ad2148f	-7.205388255053808e-06
218	0x3ee6eee860eda8e5	1.0935417803021846e-05
219	0xbef5fe46496f85cf	-2.097440718873915e-05
220	0x3f24d1d447eeb812	0.00015884128876336772
221	0x3f270c245618eb5e	0.00017583793219152604
222	0x3f257f7666b1c658	0.00016401596380748412
223	0x3f38ea909355c7ee	0.00038019208599060397
224	0xbf23b750ce71fdee	-0.000150421728196889
225	0xbf40909599e68a71	-0.0005055170511705909
226	0xbf32d37fb8b3459a	-0.00028726452064827825
227	0xbf3279fbe576bca5	-0.0002819290143305043
228	0x3f366c500e5b0f0a	0.000342149300518666
229	0x3f3b41309847022f	0.0004158729209642634
230	0x3ef9c1b64dab0bc2	2.456349180125404e-05
231	0x3efc6afddfa50804	2.7101455978291458e-05
232	0x3ef3204afcb1bdb5	1.8240112507004423e-05
233	0x3f0bacf73643ad61	5.278710776387519e-05
234	0xbef2e2cb5173614d	-1.8011011971492703e-05
235	0xbf142fcfaefba548	-7.700638866094567e-05
236	0xbf046a2f6c0ef9f3	-3.893811436438471e-05
237	0xbf05c3946de2d3ec	-4.151150436496734e-05
238	0x3f0c418b8fc48f51	5.389411123449143e-05
239	0x3f05d208ae19f05c	4.161919583808911e-05
240	0xbedd2b5835ffdbf4	-6.95450657416714e-06
241	0xbedb1b3bbd63ad6b	-6.462664677391173e-06
242	0x3ee3f6bdf4087276	9.51949880439419e-06
243	0xbec6e471fccdb8b9	-2.7289824857035675e-06
244	0xbea617d2053e7b42	-6.584241511903391e-07
245	0x3ef2d11109384f4f	1.794497127434398e-05
246	0x3ea4684fa59b6504	6.081898604417726e-07
247	0x3ee683efb6e51c5e	1.0736168147075321e-05
248	0xbeeebffcca4b1092	-1.4662719260434801e-05
249	0x3ef3307e5fac10d3	1.8300464925694753e-05
250	0x3e9ae4e5f1d3dc00	4.0075382108602014e-07
251	0x3e9a067e36ba6420	3.8780813469693446e-07
252	0x3e75fae6e2d50f7a	8.18821994280111e-08
253	0x3ea6eed4cb5e2e2c	6.834547068164412e-07
254	0xbe8edbb1314a2e37	-2.2991130123707023e-07
255	0xbeb3c6285a97ee9b	-1.1786254198166709e-06

exp_avg_sq f8 [40, 10]
0	0x3e3f5b55b64471e1	7.300818481261776e-09
1	0x3e3856701f45c9c1	5.666550329972011e-09
2	0x3e2df3b951cbd910	3.486877132837524e-09
3	0x3e50d5ecbaff9c83	1.567941482197199e-08
4	0x3e2814723f5b76b8	2.803265615173302e-09
5	0x3e6eb563d6b4e4bb	5.719914039155229e-08
6	0x3e41fdf82d4d0ea2	8.37820960666881e-09
7	0x3e568f6c9ba54efa	2.1010871023337892e-08
8	0x3e61d5a906da4387	3.321955053843172e-08
9	0x3e5900e07a9af184	2.3286254402801617e-08
10	0x3dffc349b6f43689	4.6221020670065173e-10
11	0x3dff4f87c24699e0	4.5563014669842403e-10
12	0x3dfbb6f530117fd8	4.0330165601943235e-10
13	0x3e21865e9cc32533	2.040164681376455e-09
14	0x3e032d9aed11933c	5.581574873622875e-10
15	0x3e31f9fcfed728d9	4.185483943326227e-09
16	0x3e14a5675523220e	1.2017616524738428e-09
17	0x3e1c3dcc79cc2eba	1.6438659107470138e-09
18	0x3e228d8d597cce55	2.159846256618604e-09
19	0x3e3330e5fb6110f0	4.468255035127776e-09
20	0x3e2b1b49446b155b	3.155622016597738e-09
21	0x3e249051c5dc2389	2.393935312899312e-09
22	0x3e1b05f30155138d	1.57295954501927e-09
23	0x3e38cb32d9bab241	5.772743529437497e-09
24	0x3e10391c850a9235	9.443082046912044e-10
25	0x3e5a9d922d2f88d9	2.478762690581348e-08
26	0x3e2957ad71f80d23	2.9502541657521645e-09
27	0x3e42cfbfcd6823d7	8.759796815882483e-09
28	0x3e4fdc3442b01362	1.4836048908500758e-08
29	0x3e4681108bbf026f	1.0479315519399704e-08
30	0x3e4d18205226aba8	1.354806273143485e-08
31	0x3e46162ad472b4dd	1.0284870412215826e-08
32	0x3e3bcfb22bdb6fbf	6.475325773596855e-09
33	0x3e5e9f9bf533dc73	2.8520332162750436e-08
34	0x3e37cbcf7cae0aad	5.540469370510925e-09
35	0x3e7c5f457d031d74	1.0569451025780733e-07
36	0x3e5050bb87bf7f0e	1.5194864463776295e-08
37	0x3e6547cab3f162c7	3.963790228743863e-08
38	0x3e708a333f4971ef	6.161572214378069e-08
39	0x3e6764d5214030b8	4.357449170941312e-08
40	0x3dd0693485ebf7eb	5.970271627807847e-11
41	0x3dc732065413ef1d	4.2192203298629084e-11
42	0x3dc9e3134dc58cb6	4.7088202886780796e-11
43	0x3de717fe93e987b0	1.6802898825464657e-10
44	0x3dc71e22c454fa9a	4.205088407820621e-11
45	0x3e01185a208752b3	4.975336263268141e-10
46	0x3dd83d395b61a80f	8.818153745864641e-11
47	0x3ded8053a7633d32	2.1465003706233806e-10
48	0x3df39b02513943ba	2.852976338019259e-10
49	0x3df4da3ee501a902	3.0344413527596147e-10
50	0x3df1f6bf38a62e9b	2.6140849957683996e-10
51	0x3dea716739d66e7e	1.9239801151462918e-10
52	0x3de467dd2a624f3a	1.4847114266498358e-10
53	0x3e05746f503292ee	6.24417545789989e-10
54	0x3de475ec71043463	1.4887074256346807e-10
55	0x3e2144540fe7dc34	2.010132615260672e-09
56	0x3df7a06a769a2bd7	3.438126368693265e-10
57	0x3e0c149e931c3e8b	8.172514108338742e-10
58	0x3e138e4bdd7e1c78	1.1383000011071991e-09
59	0x3e12606e39df272f	1.0696636696938948e-09
60	0x3e437124e05d7e9a	9.053372284218237e-09
61	0x3e41beb5e03e742c	8.263142177277198e-09
62	0x3e3c6a90e04e6511	6.616179164340286e-09
63	0x3e60fe202d55ce0b	3.165133014961521e-08
64	0x3e4278eef61a8f08	8.601879822427022e-09
65	0x3e740ad0cd02701f	7.466319407390361e-08
66	0x3e5419342fb40777	1.8718142574993763e-08
67	0x3e5fc1203d3d0e7b	2.9573587869619178e-08
68	0x3e6544bde880a75a	3.9615710767665744e-08
69	0x3e70eb5912fea534	6.302940813600795e-08
70	0x3e293392b9d8a33c	2.9338357982344795e-09
71	0x3e251bc2fc82f056	2.4573463022167767e-09
72	0x3e1ea2463bfc6930	1.7831267434333804e-09
73	0x3e40e12a74fd50e4	7.86015488778201e-09
74	0x3e1de9454d74706f	1.7410617859052478e-09
75	0x3e592157b2ae87ed	2.34043639292115e-08
76	0x3e33184cf16af58d	4.445883458850793e-09
77	0x3e42ec1f258233b3	8.811405980097036e-09
78	0x3e4c1f95e1a15337	1.3095969687298315e-08
79	0x3e4d447801d8474d	1.3628721313853008e-08
80	0x3e49297e38a8ed66	1.1717007604713292e-08
81	0x3e44b0619e18fa2e	9.634061495721531e-09
82	0x3e3f874767f16f85	7.340785423180894e-09
83	0x3e60cfce21f1d288	3.131430425458367e-08
84	0x3e3edf165741057b	7.187815998704742e-09
85	0x3e78fe015d1d02ba	9.310323114982097e-08
86	0x3e52feb7db039c9f	1.7690465704218095e-08
87	0x3e6328b051dbf7bb	3.568630744901755e-08
88	0x3e6c08e225a8a3d9	5.221869932667268e-08
89	0x3e6d9b65847324df	5.514736805542834e-08
90	0x3e45566d6806e641	9.936097501077348e-09
91	0x3e3d369d8b45d97b	6.801761088704585e-09
92	0x3e29a50a7e2fc127	2.985434997733051e-09
93	0x3e49eaf41e1934f0	1.206891026279866e-08
94	0x3e042e573a8d49cb	5.873449410024934e-10
95	0x3e74170d7bd3b852	7.484126647906014e-08
96	0x3e3687da48ccfe51	5.2458314470198936e-09
97	0x3e5bffb8deb3a530	2.6076021270123834e-08
98	0x3e68f48f03edf066	4.6482881980108797e-08
99	0x3e4cf4ed252a02f9	1.3484034476876846e-08
100	0x3e27e6744c806eae	2.7823508809538602e-09
101	0x3e22f68410787b4b	2.207578234593661e-09
102	0x3e1716b170ec6bc7	1.3439360212319491e-09
103	0x3e3a84d9938b4d42	6.174423022089309e-09
104	0x3e13711d3f91027a	1.1316647603955428e-09
105	0x3e576517863f1c02	2.1788189377509654e-08
106	0x3e2cc9d52fac380e	3.351411923485164e-09
107	0x3e411c78a6dd2413	7.968030870215462e-09
108	0x3e4b11df036cd938	1.260536218253809e-08
109	0x3e44443db47557ad	9.437355465390625e-09
110	0x3df81ed466a409d0	3.5099843052955355e-10
111	0x3df7efb340b3870e	3.4831942946386654e-10
112	0x3df339622c953dbd	2.797482632548841e-10
113	0x3e178265d834eacd	1.3684252349554635e-09
114	0x3df73799f2bdfbac	3.378546216595639e-10
115	0x3e2aee5e546ae4e8	3.1351958003186473e-09
116	0x3e0b9eda0b3857d4	8.038627736033264e-10
117	0x3e13bd8c8d31a073	1.1490440168579978e-09
118	0x3e1cbf4687deb719	1.6733055214698164e-09
119	0x3e29ffed4419d366	3.026765089265151e-09
120	0x3e2fe1aeddbdda2d	3.7115037553159976e-09
121	0x3e30b8dd66ed6662	3.89342390171498e-09
122	0x3e33d84ef30fee6c	4.620513569839499e-09
123	0x3e51b5c0e289cab5	1.649369899205107e-08
124	0x3e33d4a575bea82c	4.617182937993092e-09
125	0x3e6152c98087947d	3.2267323094538e-08
126	0x3e45a3e3a2bc000d	1.0076999755036947e-08
127	0x3e4b2db972fdeb0a	1.2656026976195158e-08
128	0x3e51960a01f1f438	1.63783228060506e-08
129	0x3e64669c31e5c227	3.799948998767164e-08
130	0x3e4204f0b3e53c7c	8.390889424821195e-09
131	0x3e4252e207c59766	8.532666344924817e-09
132	0x3e40c60dac2b6f70	7.810837648049827e-09
133	0x3e62610eedc46349	3.4233804876120374e-08
134	0x3e440602aa6ae478	9.324158623467933e-09
135	0x3e7309fe993cfde8	7.092595516194884e-08
136	0x3e5658e3b606e094	2.081247474510574e-08
137	0x3e5d945305ee6b85	2.7547955357494664e-08
138	0x3e638d4dd1b28fb2	3.6418379611714026e-08
139	0x3e72e942a6760b56	7.044961024796025e-08
140	0x3dc334a79dfe9b48	3.493493320089852e-11
141	0x3dc2143eea246ad4	3.288566404241977e-11
142	0x3dc6e5e28329afdc	4.1651196723692174e-11
143	0x3de85dbf3197c82e	1.7728742848469134e-10
144	0x3dcae419d424cfbe	4.891447881979202e-11
145	0x3df708c2d6f9ef09	3.3519206071889986e-10
146	0x3ddc190b7b3354b3	1.0221931530396393e-10
147	0x3de3345bc92a3712	1.3973131383076005e-10
148	0x3de7eccc457f2bd1	1.7407722724091278e-10
149	0x3df93629a5e550cd	3.668766730480952e-10
150	0x3e44be5a6db5af4b	9.659476266346723e-09
151	0x3e41cef974dcf1cb	8.292726196375679e-09
152	0x3e39752b80ea3d9c	5.927331527197413e-09
153	0x3e5d5978b838feb9	2.7333850306656513e-08
154	0x3e3b2b2372a76da0	6.325661586953586e-09
155	0x3e74f058a360e0d4	7.800330412220515e-08
156	0x3e50c8e21c5e9cd4	1.563197018325971e-08
157	0x3e5f86738320b2f0	2.9360130500573643e-08
158	0x3e67502af1c8c9ad	4.342413559669548e-08
159	0x3e6ab5984f1765d8	4.975005108891459e-08
160	0x3e3e796118dc8337	7.095313126778374e-09
161	0x3e4095ba74b74b91	7.72293486706035e-09
162	0x3e3f3bf1ce6f4633	7.272269209527628e-09
163	0x3e61abc2538d46dc	3.291467937670128e-08
164	0x3e44462a79d9fe76	9.44085681441162e-09
165	0x3e705d4b1b24ac66	6.096224217505677e-08
166	0x3e55e52e357cbb90	2.039152788220405e-08
167	0x3e59eea2f9588b04	2.415121932141502e-08
168	0x3e602d9ec271ea2a	3.0134252698152876e-08
169	0x3e72fbcfe365e064	7.071957317482784e-08
170	0x3e18a5899e2dffea	1.43462274761088e-09
171	0x3e157a4287bcc0a0	1.2501595582960012e-09
172	0x3e1084b0a3fbd54e	9.614927881086821e-10
173	0x3e3249fe3b506f5d	4.258247911423364e-09
174	0x3e11b3fd7172f342	1.0304552261788402e-09
175	0x3e48da9939471094	1.1573499305517118e-08
176	0x3e2524b8243ca40e	2.4614197640998472e-09
177	0x3e330a7e993edb30	4.433326945073757e-09
178	0x3e3b6e6a83e188ef	6.386850213715929e-09
179	0x3e409ac630da486e	7.732113195620607e-09
180	0x3e47950830f958c6	1.0981297231927057e-08
181	0x3e42c3eb0bce14d8	8.738276208314509e-09
182	0x3e37bfaeb98eed39	5.529439039396556e-09
183	0x3e5a49a7f0d9279b	2.4482345975421792e-08
184	0x3e345b09542649ed	4.739410033171653e-09
185	0x3e776a2176798019	8.722608201830148e-08
186	0x3e4c73c064857099	1.324906685810227e-08
187	0x3e61297b9464ac1d	3.196679414432815e-08
188	0x3e6b4c9b4acc02d0	5.084880547700154e-08
189	0x3e64f76eb7522149	3.905321125605936e-08
190	0x3e79757a6559d5e8	9.484178894479283e-08
191	0x3e7bc48ecc10b3ae	1.0344313052029579e-07
192	0x3e76aa4decee5852	8.443464170749485e-08
193	0x3e9d21e9195fa8d4	4.3410752803445073e-07
194	0x3e8146168b7a3dbc	1.2869970133056107e-07
195	0x3eab1785f797b051	8.074011780801522e-07
196	0x3e9216d94c8b6912	2.6955087810216227e-07
197	0x3e95cc91651257e8	3.248318068497492e-07
198	0x3e9a957c198d4d1b	3.9613134954659815e-07
199	0x3eaf2b38082c5410	9.289033332272071e-07
200	0x3e097a11f5686585	7.414735308516174e-10
201	0x3e04802574c7a452	5.966451582445546e-10
202	0x3dfc4c4f763d4d4b	4.117913703078664e-10
203	0x3e1ed43ea064da31	1.7944886701383248e-09
204	0x3df8ed25a96c07fe	3.627262183513559e-10
205	0x3e394e5b731fe860	5.8920315727051186e-09
206	0x3e10fcedd7f2716e	9.88831988329453e-10
207	0x3e22f55336671b1d	2.2070367089646427e-09
208	0x3e2d0130ad46b4dd	3.376585547805436e-09
209	0x3e28a4035503abdb	2.8685522083678268e-09
210	0x3e1d7e524c94d827	1.7167443459220028e-09
211	0x3e166f13ad7f55a0	1.3058244954004826e-09
212	0x3e140b6d45dbcc64	1.1667513825176345e-09
213	0x3e3486d6555dc2e2	4.779246628537e-09
214	0x3e154b453bec3ca7	1.2394753970509947e-09
215	0x3e4d8f662512d8af	1.3765018599221602e-08
216	0x3e268ad44ad8ab7a	2.6242693216158472e-09
217	0x3e3847ffeb5311dc	5.653418779290199e-09
218	0x3e4083eb6c007a02	7.69054098187121e-09
219	0x3e456d8bc61ea515	9.978150031778223e-09
220	0x3e9277821fbd02aa	2.7517719990506064e-07
221	0x3e910646356a40fa	2.536849498602702e-07
222	0x3e8ee3f3e0b5a4c0	2.301517131140441e-07
223	0x3eb01a20ecba9ef1	9.597578580020203e-07
224	0x3e9063d162cfbf88	2.442287463924198e-07
225	0x3ec3187272c8241b	2.276360552725982e-06
226	0x3ea30201e168edaa	5.664778111655914e-07
227	0x3ead8e13a053a905	8.808072499398594e-07
228	0x3eb4584cfd2ed95c	1.2126520132334098e-06
229	0x3ebf5337e34794b7	1.867119761128368e-06
230	0x3e4b8c6ff2c48c63	1.2828308714401191e-08
231	0x3e444195e4c9844c	9.432525116181282e-09
232	0x3e3d779af677cea8	6.860869073810298e-09
233	0x3e5cc7adbbe2f10c	2.6803458779505772e-08
234	0x3e3721d49b82193b	5.385873462607181e-09
235	0x3e7b268f24992f48	1.0114394757251903e-07
236	0x3e4e21bec50df06f	1.4031220770106822e-08
237	0x3e64e1cb8b31a0f3	3.889577850844785e-08
238	0x3e6fb9f7e4438bd8	5.9095097289391396e-08
239	0x3e660eba45e20abe	4.108535088620262e-08
240	0x3e1c92f09bd91ee1	1.663224765719338e-09
241	0x3e1321deffcf75d8	1.1136469517752653e-09
242	0x3e106a46493aa78d	9.554866107663843e-10
243	0x3e2cc00566720b35	3.346950095166914e-09
244	0x3e06286699430007	6.44877306523113e-10
245	0x3e4b6acb21c3cc70	1.2767110973000934e-08
246	0x3e1cffbc03ca86d6	1.6879617835111047e-09
247	0x3e35e67d69943945	5.099072852551829e-09
248	0x3e40478d925fbc6f	7.580734772526771e-09
249	0x3e386a2293a14512	5.684464727123142e-09
250	0x3da1885b38a379f9	7.972922469765364e-12
251	0x3d90a67061abc2f5	3.7858063265086675e-12
252	0x3d964b7a16d57e83	5.0692578232146386e-12
253	0x3da7598889892366	1.0618232246578749e-11
254	0x3d8c50b79296e391	3.2190770407178367e-12
255	0x3dcdfe705269eb72	5.4558588811446e-11

exp_avg f8 [40]
0	0xbf20b1356f717dab	-0.00012735154425323517
1	0xbec77a2fb3e59f90	-2.7987111074663032e-06
2	0xbf0d1e41faa7ac9c	-5.553854801462166e-05
3	0x3f2335d4c60a0a73	0.0001465627892863367
4	0xbee35f086fa1bdb9	-9.236918675463846e-06
5	0xbf0c10577b6504dd	-5.3527517069893003e-05
6	0x3f21420a5e3da0ed	0.00013166786731778156
7	0xbf19597ad58cbf91	-9.670078487711136e-05
8	0xbf2891c1853ea3a2	-0.00018744933424599564
9	0x3f005d2050902381	3.1211422602045985e-05
10	0xbf0cdf74fc661a42	-5.507064593062275e-05
11	0x3eddc6c510c4e230	7.099257583847082e-06
12	0x3f127aae56bb82cd	7.049264030057762e-05
13	0x3f213edae9135626	0.0001315729355499267
14	0xbea98df304136b94	-7.615831309164283e-07
15	0xbf1fcdd2c08103f2	-0.00012132262065823999
16	0x3f1dbb4c193d6049	0.00011341716736745876
17	0xbf04a4350136cee2	-3.9370410515186254e-05
18	0xbf1adad8446d9465	-0.00010244317046000232
19	0xbf2369f959af1ac8	-0.00014811676814315542
20	0xbf114cee11566f7b	-6.599619913177743e-05
21	0xbf04d52cc35d28f5	-3.973524910223957e-05
22	0x3f50d1e7b19730b5	0.0010266077646177544
23	0x3f3d507c3410dc51	0.00044730217274796975
24	0x3f06b5035390380e	4.33103218214632e-05
25	0x3f130a0b2594f6d9	7.262890848821635e-05
26	0xbf3ff59afd13bc31	-0.0004876616849988662
27	0x3ee07c618ba6f468	7.861072266796522e-06
28	0xbf30319f855301f6	-0.0002470983939240329
29	0xbf5c1486df06ba77	-0.0017138783551719197
30	0xbf2e51660eeb38f0	-0.00023130770519803152
31	0x3ed33554b37325c0	4.579621239739066e-06
32	0xbede22254a4b6097	-7.1843580015871935e-06
33	0x3f2efe3329d962d6	0.00023645758203618442
34	0xbeef9dccf510ea6a	-1.5075878453276257e-05
35	0xbf3b49c225500385	-0.00041638364683654227
36	0x3f1e0e6d1b290a29	0.00011465588503604324
37	0xbf288b347fa83eb9	-0.0001872541032104014
38	0xbf28c4c036f174fa	-0.0001889691006650497
39	0xbeebd05751b2b06c	-1.3262668792833793e-05

exp_avg_sq f8 [40]
0	0x3e81a6f84a4eda96	1.31519333338669e-07
1	0x3e443d25677952f1	9.424449872561575e-09
2	0x3e7072d10112bd21	6.127544362426426e-08
3	0x3e902d46e339833b	2.410540418159878e-07
4	0x3e1f02f18f414195	1.805106783682824e-09
5	0x3e4481409751fc91	9.548334326544009e-09
6	0x3e87027b97199a24	1.7143561197308454e-07
7	0x3e6d69daea451324	5.4786906819018023e-08
8	0x3e8e0d61eb001407	2.239068996880114e-07
9	0x3e865dbb29da9b72	1.6664070739033506e-07
10	0x3e69b1ed100622cb	4.7860710952637264e-08
11	0x3e3cb2d5ddf009a8	6.681907887241092e-09
12	0x3e734e24d941ef46	7.191765966253644e-08
13	0x3e84bd73b616cabd	1.5452539074491114e-07
14	0x3e0b3d19e0fd66fc	7.927498119582541e-10
15	0x3e87158615022c39	1.7198977753473667e-07
16	0x3e81c95477893a26	1.3251934284854429e-07
17	0x3e5b9d8974c1179b	2.5718825555591043e-08
18	0x3e89902d0637141e	1.904605851766442e-07
19	0x3ebdb37c4222db5f	1.7703243960062303e-06
20	0x3e51c458d8d33fcd	1.6546790206084087e-08
21	0x3e6a435010e2bc05	4.891853865159684e-08
22	0x3ed6369d7f302c27	5.296073129388982e-06
23	0x3ea38e9e5455f48a	5.828471009574845e-07
24	0x3e69fad3dab6be58	4.839113939712391e-08
25	0x3e4e598f1d6cd614	1.4132745568971638e-08
26	0x3eb5edf52ab02491	1.307101380689552e-06
27	0x3de9021811ae9b8f	1.819584559770772e-10
28	0x3e8768b607e0f221	1.7441084660005694e-07
29	0x3f02269568239d25	3.4619745763293006e-05
30	0x3e9a67d856a2f245	3.934747697766998e-07
31	0x3e5bdacb3cd1f8b7	2.5941677074270494e-08
32	0x3e6fefe0830f1e22	5.94873345093398e-08
33	0x3e9c9d96012ecfb6	4.2640522329305323e-07
34	0x3e3a4ae33507ca85	6.1217065448820045e-09
35	0x3eb6d37d7a140f76	1.3605435714167446e-06
36	0x3e7e68d80df4a1f8	1.1328438941484641e-07
37	0x3e917af3c7b24210	2.604765040959483e-07
38	0x3e9629fec5212c14	3.30269988361901e-07
39	0x3e734605b0838e33	7.1799473147813e-08

exp_avg f8 [40]
0	0xbf20b1356f717dab	-0.00012735154425323517
1	0xbec77a2fb3e59f90	-2.7987111074663032e-06
2	0xbf0d1e41faa7ac9c	-5.553854801462166e-05
3	0x3f2335d4c60a0a73	0.0001465627892863367
4	0xbee35f086fa1bdb9	-9.236918675463846e-06
5	0xbf0c10577b6504dd	-5.3527517069893003e-05
6	0x3f21420a5e3da0ed	0.00013166786731778156
7	0xbf19597ad58cbf91	-9.670078487711136e-05
8	0xbf2891c1853ea3a2	-0.00018744933424599564
9	0x3f005d2050902381	3.1211422602045985e-05
10	0xbf0cdf74fc661a42	-5.507064593062275e-05
11	0x3eddc6c510c4e230	7.099257583847082e-06
12	0x3f127aae56bb82cd	7.049264030057762e-05
13	0x3f213edae9135626	0.0001315729355499267
14	0xbea98df304136b94	-7.615831309164283e-07
15	0xbf1fcdd2c08103f2	-0.00012132262065823999
16	0x3f1dbb4c193d6049	0.00011341716736745876
17	0xbf04a4350136cee2	-3.9370410515186254e-05
18	0xbf1adad8446d9465	-0.00010244317046000232
19	0xbf2369f959af1ac8	-0.00014811676814315542
20	0xbf114cee11566f7b	-6.599619913177743e-05
21	0xbf04d52cc35d28f5	-3.973524910223957e-05
22	0x3f50d1e7b19730b5	0.0010266077646177544
23	0x3f3d507c3410dc51	0.00044730217274796975
24	0x3f06b5035390380e	4.33103218214632e-05
25	0x3f130a0b2594f6d9	7.262890848821635e-05
26	0xbf3ff59afd13bc31	-0.0004876616849988662
27	0x3ee07c618ba6f468	7.861072266796522e-06
28	0xbf30319f855301f6	-0.0002470983939240329
29	0xbf5c1486df06ba77	-0.0017138783551719197
30	0xbf2e51660eeb38f0	-0.00023130770519803152
31	0x3ed33554b37325c0	4.579621239739066e-06
32	0xbede22254a4b6097	-7.1843580015871935e-06
33	0x3f2efe3329d962d6	0.00023645758203618442
34	0xbeef9dccf510ea6a	-1.5075878453276257e-05
35	0xbf3b49c225500385	-0.00041638364683654227
36	0x3f1e0e6d1b290a29	0.00011465588503604324
37	0xbf288b347fa83eb9	-0.0001872541032104014
38	0xbf28c4c036f174fa	-0.0001889691006650497
39	0xbeebd05751b2b06c	-1.3262668792833793e-05
